trained_models/checkpoint.pth.tar (torch_old, 423131 bytes, 8 tensors)

encoder.0.weight f4 [64, 784]
0.01840226 -0.01576351 -0.0069236252 0.016763177 -0.03362275 0.021418475 -0.0073473323 0.018169425
0.004964892 -0.0043730065 0.009905748 0.00176185 -0.1234135 0.0059024356 0.21572599 0.14129889
0.0051765703 -0.00014267117 0.031220239 0.011113934 -0.013300223 -0.02157005 -0.0059862733 -0.015405025
-0.011444591 0.0017100573 0.021290276 0.019412026 -0.034912534 0.022140019 0.009977281 0.03387698
-1.3728791 -1.6593434 0.7973401 -0.1891663 0.23907925 -0.041426122 0.17580344 -0.21817881
-0.08120528 0.08227321 -0.06041537 -0.12263562 0.22644411 0.051619582 -0.05856742 0.080862425
-0.11901438 0.30038297 -0.6870662 0.3089465 0.019379787 -0.008681331 0.035573196 0.02862816
-0.0016722716 -0.023838684 0.95121545 -0.39014572 -0.63438827 -0.19873542 0.08807409 0.17310427
0.20273393 0.04587125 0.0635587 -0.082398765 0.074380115 0.09715264 0.0098674 0.04949934
0.062993206 0.02100301 0.07791408 -0.028921569 -0.06406729 -0.24718994 0.21313985 0.27097195
-0.31296742 -0.22862811 0.002171941 -0.0060859714 0.020975858 -0.020683417 -0.39933857 0.5526231
-0.26418486 -0.079261936 -0.12318515 0.10497145 -0.11314745 0.022688193 0.07019251 0.006896149
0.0040832274 0.03807746 0.003322729 0.045541108 0.021389589 0.002804998 -0.031193389 0.0030585793
-0.04829053 0.0005257306 -0.10072429 -0.019711522 0.032658987 0.25027114 -1.1491408 0.026677094
0.033864807 -2.4686356 0.19286947 -0.26487017 0.18876912 -0.0009732846 0.018196464 -0.028700816
0.058217905 0.042916544 0.055855643 0.047277685 0.047556687 0.027742298 0.039263487 0.03261938
-0.02291739 0.016562441 -0.028106015 -0.0022335295 -0.023574883 -0.053675503 -0.0024707352 0.043011155
-0.0046805763 -0.015933298 0.3134046 -1.6987505 -0.016365021 -0.0041587837 0.088251114 -0.070784956
-0.07191112 0.055713233 -0.027203895 -0.016648306 0.029896693 0.011759105 0.015754173 0.0128088165
0.015361266 -0.008992169 0.016873453 0.017534928 0.0005410527 -0.017301647 -0.032026507 -0.04112453
-0.112970665 -0.015096538 -0.047615558 0.05471215 -0.05071804 0.029371692 0.039165635 -0.29329774
-0.028461372 0.5175339 0.0017455899 -0.059661582 -0.05124845 -0.060625553 0.023367744 0.009446057
0.014912386 0.029599858 0.024955766 -0.018472351 -0.01190878 -0.013134042 -0.010659596 0.009263083
0.021705195 0.020496815 -0.020986237 -0.030337619 -0.030549986 -0.013147618 0.041353446 -0.0017821692
0.07832799 0.008968715 -0.08462987 -0.05784757 -2.0366018 0.003953881 0.009868677 0.06709104
0.009231103 -0.04603681 -0.0047666915 0.009265278 0.0034350492 0.015296216 -0.019362325 -0.011930022
-0.017082743 -0.016064413 0.01782284 0.030427704 0.039671373 0.015318722 0.0007597999 -0.035100866
-0.00158531 0.01543711 0.057391115 0.08566895 0.08493271 0.059113055 0.13863589 0.2506431
-0.3411003 0.15038979 -0.13431306 -0.12178148 0.006417244 -0.025173072 -0.015496508 0.0017583759
0.014935205 0.017924132 0.0031064148 -0.00052422186 -0.0009859748 0.0151331015 0.057201967 0.037906222
0.0154064065 0.031679302 -0.03670301 -0.010735044 0.040188562 0.079153165 0.11406478 0.1230422
0.10732481 0.012663998 0.058520924 -0.004226678 -0.6519698 -0.020163948 -0.073526174 -0.0020653056
00000000: 56c0 963c 7a22 81bc 94df e2bb ee52 893c
00000010: 02b8 09bd cc75 af3c e4c1 f0bb 0cd8 943c
00000020: 88b0 a23b 704b 8fbb b84b 223c e0ed e63a
00000030: 38c0 fcbd 3869 c13b 46e7 5c3e a8b0 103e
00000040: 38a0 a93b 009a 15b9 96c1 ff3c 3817 363c
00000050: 2ee9 59bc acb3 b0bc 8028 c4bb 5c65 7cbc
00000060: 1882 3bbc 0024 e03a f268 ae3c f805 9f3c
00000070: 7200 0fbd fc5e b53c c077 233c 97c2 0a3d
00000080: 81ba afbf 5d65 d4bf 7b1e 4c3f d0b4 41be
00000090: 31d1 743e 70ae 29bd d105 343e 446a 5fbe
000000a0: f44e a6bd db7e a83d 1b76 77bd 6228 fbbd
000000b0: f7e0 673e 0e6f 533d 64e4 6fbd 339b a53d
000000c0: d0bd f3bd cccb 993e 92e3 2fbf 3c2e 9e3e
000000d0: 5cc2 9e3c 243c 0ebc 33b5 113d 9a85 ea3c
000000e0: 2030 dbba 5849 c3bc db82 733f 2ec1 c7be
000000f0: 4567 22bf 4c81 4bbe 3060 b43d 3f42 313e
00000100: 7c99 4f3e 7ee3 3b3d 102b 823d afc0 a8bd
00000110: 9a54 983d f7f7 c63d e0aa 213c d2bf 4a3d
00000120: 9502 813d 810e ac3c 6b91 9f3d edec ecbc
00000130: b635 83bd 5c1f 7dbe 5541 5a3e d6bc 8a3e
00000140: 443d a0be 7d1d 6abe 2057 0e3b d46c c7bb
00000150: 90d5 ab3c 4570 a9bc 1b76 ccbe b578 0d3f
00000160: 3d43 87be 1554 a2bd 7f48 fcbd 46fb d63d
00000170: dab9 e7bd 97dc b93c 17c1 8f3d 17f9 e13b
00000180: 98cc 853b 1cf7 1b3d 24c2 593b 5089 3a3d
00000190: 3839 af3c 0fd4 373b 4789 ffbc 7272 483b
000001a0: 4acc 45bd 2fd1 093a 8948 cebd 0f7a a1bc
000001b0: 6ec5 053d 8a23 803e 0c17 93bf ec89 da3c
000001c0: d3b5 0a3d 20fe 1dc0 937f 453e 109d 87be
000001d0: b14c 413e 0624 7fba c010 953c f91d ebbc
000001e0: e675 6e3d 42c9 2f3d e3c8 643d 3fa6 413d
000001f0: cdca 423d d143 e33c c0d2 203d e69b 053d
00000200: 40bd bbbc f5ad 873c 963e e6bc 6860 12bb
00000210: 1d20 c1bc d8da 5bbd 0fec 21bb 772c 303d
00000220: 855f 99bb 8c86 82bc 9176 a03e a870 d9bf
00000230: f00f 86bc 6846 88bb 00bd b43d b4f7 90bd
00000240: 2346 93bd 8f33 643d b4da debc 0762 88bc
00000250: e9e9 f43c 43a9 403c e50e 813c 12dc 513c
00000260: d2ad 7b3c e453 13bc 323a 8a3c 69a5 8f3c
00000270: 6fd5 0d3a 2fbc 8dbc 3a2e 03bd 3272 28bd
00000280: 2a5d e7bd 7857 77bc 8808 43bd d919 603d
00000290: b8bd 4fbd e79c f03c 256c 203d 1f2b 96be
000002a0: d327 e9bc 1a7d 043f 47cc e43a b45f 74bd
000002b0: e5e9 51bd 8052 78bd b66d bf3c a2c3 1a3c
000002c0: 1553 743c 677b f23c 0970 cc3c 5453 97bc
000002d0: 0b1d 43bc 2a30 57bc 96a5 2ebc 30c4 173c
000002e0: 18cf b13c f0e8 a73c 54eb abbc 9986 f8bc
000002f0: f743 fabc 1b69 57bc 3b62 293d ad97 e9ba
00000300: 6d6a a03d 84f1 123c 6d52 adbd 93f1 6cbd
00000310: af57 02c0 8f8f 813b 3bb0 213c 0767 893d
00000320: 0d3e 173c 1891 3cbd e831 9cbb 64cd 173c
00000330: 901e 613b fb9c 7a3c bd9d 9ebc 2476 43bc
00000340: 1cf1 8bbc 8499 83bc 3401 923c 8543 f93c
00000350: 737e 223d 61fb 7a3c 4f2d 473a edc5 0fbd
00000360: 2dca cfba efeb 7c3c f212 6b3d 3473 af3d
00000370: 33f1 ad3d 8820 723d 91f6 0d3e 4b54 803e
00000380: b3a4 aebe c8ff 193e 5d89 09be 9268 f9bd
00000390: bf47 d23b c237 cebc 11e5 7dbc 4e79 e63a
000003a0: cab2 743c a1d5 923c fe94 4b3b ef6b 09ba
000003b0: d33b 81ba d4f0 773c 9c4c 6a3d 8e43 1b3d
000003c0: 276b 7c3c 28c2 013d e555 16bd 0ae2 2fbc
000003d0: c39c 243d 0e1b a23d cc9a e93d 8dfd fb3d
000003e0: 1ccd db3d a87c 4f3c a3b3 6f3d f27f 8abb
000003f0: 7ee7 26bf dd2e a5bc e494 96bd 145a 07bb

encoder.0.bias f4 [64]
0.06327247 -0.47647038 1.097537 0.110729285 0.6898312 0.84630847 2.001459 0.28609508
-0.5099698 -0.32060832 -0.31563556 0.69030404 1.066329 -0.47237745 0.024425866 -0.1717674
-0.25270364 -1.6216544 0.3297907 -1.3538989 -0.6538002 -1.2534746 0.97867155 -0.46065617
0.17688783 1.4620587 0.73592275 0.027197508 0.64198595 0.35354653 -0.26925072 -0.22617908
-0.60856766 0.7817702 -1.2120851 0.43599507 3.1815743 0.1651477 0.16744779 -0.16106157
-1.8195319 -0.26089317 -0.260421 -0.44230515 0.6540909 0.8230507 -1.7540917 -0.15421459
-0.09477862 -1.9829696 -0.18037237 1.7713364 0.8726004 1.6866771 -1.3575732 0.52504563
-1.584167 0.65783083 -0.3996119 -0.3409938 0.9354172 2.3405237 3.7137833 1.2215588
00000000: ff94 813d edf3 f3be 187c 8c3f 09c6 e23d
00000010: c798 303f aca7 583f e717 0040 0e7b 923e
00000020: 618d 02bf c626 a4be fc9a a1be c4b7 303f
00000030: 787d 883f 75db f1be c118 c83c cbe3 2fbe
00000040: 5f62 81be 5f92 cfbf 54da a83e 8f4c adbf
00000050: 735f 27bf db71 a0bf 388a 7a3f 20db ebbe
00000060: 1522 353e bd24 bb3f 6f65 3c3f 4fcd de3c
00000070: 3159 243f 0d04 b53e 3bdb 89be 7d9b 67be
00000080: 17cb 1bbf 1822 483f 9b25 9bbf bf3a df3e
00000090: ea9e 4b40 7b1c 293e 6f77 2b3e 53ed 24be
000000a0: 6ce6 e8bf ca93 85be e755 85be d275 e2be
000000b0: 8072 273f 73b3 523f 1486 e0bf 6eea 1dbe
000000c0: 4b1b c2bd f3d1 fdbf 89b3 38be 27bb e23f
000000d0: bd62 5f3f 09e5 d73f f5c4 adbf 6469 063f
000000e0: fcc5 cabf 9a67 283f ee99 ccbe bd96 aebe
000000f0: 8077 6f3f 24cb 1540 a0ae 6d40 0a5c 9c3f

encoder.2.weight f4 [32, 64]
-0.15138102 -0.031798355 0.13208498 -0.022716139 -0.6085869 1.0552641 0.8392227 0.23886843
0.42643085 0.3799518 -0.75190794 -0.41438216 -0.3976056 -0.80919546 0.037723154 0.22946817
-0.3365091 -0.5035907 -0.09692293 0.20821333 0.055160474 0.43339422 0.14156866 -0.09528015
-0.72954834 -0.6599823 -0.118646495 -0.8219362 -0.007933259 -0.1778175 -0.13629554 0.30296928
0.87202394 -0.14637722 -0.08703816 -0.15542147 0.14916119 -0.046700764 0.27885994 -1.1404389
-0.25314772 -0.25609705 -0.118631035 -0.17730206 -0.6454995 0.8205307 0.72406423 -0.93632483
0.37639037 0.5229949 0.22993822 1.3206369 0.39101914 0.18923812 -0.13045937 -0.00269516
0.7483889 1.0053633 -0.4915767 0.29532987 -0.67662567 -0.40969416 -0.14612418 0.18790938
-0.6772041 0.201905 0.17046535 0.79574066 -0.44922426 0.0055773202 0.39716595 0.27078074
0.65884346 0.20975313 -0.28640392 0.39710128 0.13065703 0.46265063 0.4238425 0.0035608101
1.0681297 -1.2748218 0.23404038 0.514472 0.3320107 -0.13616094 -0.13121527 0.47833395
0.20032328 0.64334786 0.6701657 0.5721646 -0.17270511 -0.43948212 -0.26811993 -0.14032356
0.80188346 0.15005752 -0.11543894 -0.04580322 -0.17427385 -1.5314548 0.09002046 0.017332181
0.6550447 0.013354095 0.0028168445 -0.25663006 0.27623442 -0.19594987 -0.26903456 -0.39423746
-0.6382203 1.3712666 -0.63372755 0.18878524 -0.46823052 0.63133144 -0.29910633 -1.1098497
-0.4615615 -0.14778163 -0.4033885 0.24637091 -0.63291496 -0.2011641 -0.7284321 -0.022014145
-0.32774886 -0.31183508 -0.76394165 0.035912197 -0.25393122 0.38857266 0.3503163 0.3258337
0.15389119 0.21355326 0.08630148 0.20031743 0.51417494 0.09332412 0.053364675 0.41089052
-0.22519666 -0.015682565 -0.31387645 0.116768666 -0.60624814 -0.46746355 0.123006776 -0.73707193
-0.48279905 0.6941119 -0.9929052 0.32735634 -0.6212555 0.02293927 -0.35703468 -0.23424253
0.5568078 -0.21359436 -0.25357616 -0.131463 0.14060073 -0.33816355 -0.11537324 0.10959804
0.5503269 -0.11889261 -0.7694375 0.10773402 0.80505306 0.32894215 -0.9331171 -0.21525347
0.4550789 -0.2116485 0.06736104 -0.2558459 -0.3257603 0.85230434 0.5067957 -0.42407343
0.8295657 0.16935855 -0.297309 -0.015369543 -0.015536316 -0.69435364 0.89002013 0.22201745
0.8645051 0.66646945 -0.4346054 -0.1370897 0.6733379 0.3884842 0.3568218 0.2564681
0.30607882 -0.46699354 -0.039221507 -0.5191076 -0.03550606 0.06955966 -0.072165996 0.28181228
-0.6875239 -0.67251015 0.70946425 -0.330599 0.3680924 -1.5174122 -0.5350701 0.33913833
-0.15886748 0.63224715 0.030310052 -0.53382385 0.078606546 -0.43256268 -0.12331509 -0.31306174
0.118749805 -0.6900287 0.22302914 -0.42556518 -0.08427241 -0.4364799 -0.433889 0.30950308
-1.1504488 0.0647433 -0.007000335 -0.5440138 0.2515625 -0.32395947 -0.31007913 -0.87483144
0.6967538 0.97384375 0.077411465 -0.66660166 -0.109175295 0.7597887 0.027731467 -0.40634903
-0.089650355 -0.30553183 -0.5392719 0.3179485 0.8109211 -0.022817336 0.2178967 0.56893283
00000000: a003 1bbe fe3e 02bd 4941 073e 3217 babc
00000010: 5acc 1bbf e512 873f 4dd7 563f ed99 743e
00000020: 2555 da3e 0b89 c23e 0a7d 40bf e629 d4be
00000030: f692 cbbe 6f27 4fbf 9883 1a3d b4f9 6a3e
00000040: ec4a acbe 52eb 00bf 877f c6bd e035 553e
00000050: f3ef 613d d9e5 dd3e 60f7 103e 3d22 c3bd
00000060: aec3 3abf 9af4 28bf effc f2bd 696a 52bf
00000070: 80fa 01bc ca15 36be 0f91 0bbe ca1e 9b3e
00000080: f63c 5f3f e9e3 15be 1041 b2bd ce26 1fbe
00000090: b6bd 183e 4d49 3fbd bbc6 8e3e e7f9 91bf
000000a0: 949c 81be 271f 83be d4f4 f2bd ac8e 35be
000000b0: 753f 25bf 4d0e 523f 465c 393f fcb2 6fbf
000000c0: 3db6 c03e fee2 053f ed74 6b3e a10a a93f
000000d0: a933 c83e a3c7 413e 2497 05be 48a1 30bb
000000e0: 6a96 3f3f bfaf 803f f1af fbbe 7a35 973e
000000f0: 5737 2dbf 6fc3 d1be 94a1 15be 516b 403e
00000100: 3f5d 2dbf 2fc0 4e3e 788e 2e3e a9b5 4b3f
00000110: b900 e6be f4c1 b63b 5659 cb3e c6a3 8a3e
00000120: f7a9 283f 86c9 563e 89a3 92be dc50 cb3e
00000130: f5ca 053e 8be0 ec3e e201 d93e 7b5c 693b
00000140: 79b8 883f 5c2d a3bf 48a8 6f3e 70b4 033f
00000150: 4efd a93e c66d 0bbe 4c5d 06be 30e8 f43e
00000160: 8c21 4d3e 72b2 243f fb8f 2b3f 6179 123f
00000170: 9cd9 30be cd03 e1be 0447 89be fbb0 0fbe
00000180: 3c48 4d3f aea8 193e 406b ecbd 289c 3bbd
00000190: d874 32be b606 c4bf a65c b83d 38fc 8d3c
000001a0: 02b1 273f 22cb 5a3c cf9a 383b 0465 83be
000001b0: 996e 8d3e 15a7 48be e6be 89be 7ed9 c9be
000001c0: 6862 23bf aa85 af3f f83b 22bf eb50 413e
000001d0: e9bb efbe f09e 213f 7724 99be 8e0f 8ebf
000001e0: ca51 ecbe 1154 17be f088 cebe a848 7c3e
000001f0: b706 22bf f6fd 4dbe 877a 3abf 0257 b4bc
00000200: b3ce a7be d9a8 9fbe ae91 43bf ab18 133d
00000210: 4603 82be fff2 c63e a85c b33e add3 a63e
00000220: a795 1d3e b5ad 5a3e d5be b03d 0320 4d3e
00000230: f8a0 033f b720 bf3d eb94 5a3d 3e60 d23e
00000240: f499 66be b978 80bc 6ab4 a0be 6924 ef3d
00000250: 1433 1bbf 6257 efbe faea fb3d bfb0 3cbf
00000260: 7031 f7be 51b1 313f 092f 7ebf 409b a73e
00000270: 9a0a 1fbf 23eb bb3c 40cd b6be 46dd 6fbe
00000280: f58a 0e3f 7bb8 5abe bcd4 81be 3d9e 06be
00000290: a3f9 0f3e c623 adbe ce48 ecbd f074 e03d
000002a0: 39e2 0c3f f87d f3bd dbf9 44bf a7a3 dc3d
000002b0: f517 4e3f 1b6b a83e c3e0 6ebf 686b 5cbe
000002c0: 1a00 e93e 62ba 58be 96f4 893d 3cfe 82be
000002d0: 0eca a6be 9e30 5a3f 5dbd 013f 2720 d9be
000002e0: 6b5e 543f 546c 2d3e e338 98be 89d0 7bbc
000002f0: 088c 7ebc 29c1 31bf 5cd8 633f 8b58 633e
00000300: 3550 5d3f be9d 2a3f 9984 debe 3e61 0cbe
00000310: df5f 2c3f 67e7 c63e 59b1 b63e c94f 833e
00000320: 5db6 9c3e c719 efbe bba6 20bd 3ce4 04bf
00000330: cd6e 11bd 4c75 8e3d c4cb 93bd b349 903e
00000340: 9101 30bf a029 2cbf 739f 353f 4644 a9be
00000350: 9b76 bc3e 903a c2bf 5bfa 08bf 8aa3 ad3e
00000360: 28ae 22be f3da 213f c94c f83c aea8 08bf
00000370: 78fc a03d db78 ddbe 9f8c fcbd a149 a0be
00000380: 1933 f33d b9a5 30bf c061 643e aee3 d9be
00000390: 0397 acbd 4b7a dfbe b326 debe 3077 9e3e
000003a0: e841 93bf 2398 843d 1163 e5bb 7d44 0bbf
000003b0: cdcc 803e 04de a5be b1c2 9ebe f4f4 5fbf
000003c0: 755e 323f d34d 793f e789 9e3d 68a6 2abf
000003d0: 4c97 dfbd 8381 423f 1a2d e33c fb0c d0be
000003e0: 9b9a b7bd ab6e 9cbe b90d 0abf 25ca a23e
000003f0: 8698 4f3f 6ceb babc 5020 5f3e 95a5 113f

encoder.2.bias f4 [32]
-0.16301589 -0.45982626 0.18609473 0.024436114 -0.2546483 0.11020815 -0.22727592 0.11064535
-0.26799315 -0.11151665 -0.2483232 0.35152102 -0.21744679 -0.18316261 -0.2903055 -0.20381002
-0.17012425 -0.24830846 -0.23649585 -0.12357614 0.09498736 -0.4113426 -0.3311768 0.099071726
-0.0011470472 -0.346057 -0.032694194 -0.5171582 -0.10454623 -0.24227343 -0.091891564 -0.12577716
00000000: a3ed 26be 596e ebbe 9e8f 3e3e 3f2e c83c
00000010: 4361 82be d0b4 e13d 05bb 68be 079a e23d
00000020: 6636 89be d762 e4bd 7048 7ebe 90fa b33e
00000030: 5faa 5ebe fb8e 3bbe eca2 94be 93b3 50be
00000040: 0d35 2ebe 9344 7ebe f82b 72be 7d15 fdbd
00000050: bc88 c23d 7f9b d2be 0190 a9be 1ee6 ca3d
00000060: 8458 96ba 622e b1be 59ea 05bd 7b64 04bf
00000070: 551c d6bd 8716 78be a531 bcbd bacb 00be

decoder.0.weight f4 [64, 32]
1.1760452 0.39449844 0.6884218 -1.0068648 -0.3852977 -2.1970713 0.5556711 0.6959967
-0.26816234 -0.925127 -1.1847119 0.57179797 -0.42929226 -1.6067057 0.6638457 -3.0003388
1.2271733 -0.4905813 -0.17300947 -0.23233281 -2.656426 0.24174266 0.5839061 1.3002805
-0.42496288 0.17843725 -0.45049688 -1.6158535 -0.35609025 2.3105206 1.5020206 -0.026395572
0.5704927 2.5077958 4.2846365 0.06094442 -0.13607165 -0.1959358 0.72552687 0.44612488
0.62341064 -2.6536999 -1.908338 0.9433347 1.0465328 -0.72758955 -1.3977957 1.7012086
-0.13630581 -1.8700315 -0.03513044 1.248509 -0.42619804 -1.0655271 -0.5042452 -1.7456915
-1.9468275 -1.5928493 0.18243563 -1.9621518 1.2547821 -0.37049106 -0.61693096 2.490594
0.17785208 -0.64149374 3.2914658 -0.61025465 0.41480553 -0.0827478 0.73503375 1.7194966
2.62827 3.5664911 0.0072237384 -0.73383856 -1.1347672 -0.5386798 -3.5672307 2.2158525
-0.4749596 -0.5453974 -3.7017233 -0.47600776 1.4303948 -1.3457371 -1.6755873 1.7877216
2.0440757 0.14979237 -0.8290149 0.8819595 1.3664005 2.497058 -3.88896 -1.9113152
-0.47280106 0.27450362 -0.060331278 1.6245288 -3.2714524 -0.15580572 -0.6055466 0.60065866
2.0172782 1.8510023 0.84947854 -0.7214075 1.7161757 1.5870405 0.5884887 0.79038423
-0.98440415 -2.5873113 -0.2426939 -0.8165562 -1.586658 -1.1467626 -0.8364914 -0.36670676
-1.3832072 1.3213333 -1.4189394 2.097279 -1.7983944 1.7087564 2.3871381 -0.17172763
0.9299446 -1.356914 -1.455131 -0.92303276 0.9625419 0.5319067 -1.586312 -0.5844802
-0.8337623 2.151624 0.4157245 -0.67702675 1.6674222 2.3433874 0.10557104 -0.5876255
0.21140705 3.402137 1.710696 1.4807082 -2.6427166 -1.1549885 -0.7798325 0.23583785
0.90115684 -2.5541756 -0.9510416 0.9561898 0.21516639 0.6612993 -1.4495039 0.04443025
3.423546 2.0675263 0.2681291 0.5785009 1.6667498 -2.996497 -0.15477295 -2.946869
0.23935148 -0.527415 0.8508166 3.0155094 0.94356805 2.9315658 1.0981175 -0.8858812
-0.9327231 -1.209812 2.7049813 0.9410739 0.5264002 -0.4347761 -2.2025123 -2.5456665
0.91154295 0.9966723 -1.0167744 1.1257833 0.54110765 0.22201699 -0.7368081 -0.37964392
-1.3458936 -1.8191986 -0.107233204 -0.13379754 0.770638 -1.4732293 -0.15286322 -0.6954099
2.092218 -0.38019875 0.09867849 1.4694023 2.9312325 -0.60177076 -0.0834342 0.34510675
-1.1149409 -3.7595637 -1.1364069 1.4417216 -0.08251268 0.38484427 1.110692 -0.9217759
0.8189145 1.0024254 1.5474426 1.8328635 -1.6950818 -0.39561248 0.24941406 2.435957
0.7828761 -1.6839194 2.1298482 -0.25907597 -1.7685518 -2.2941792 -0.03462616 -2.5306754
-0.36160722 0.27599823 0.002209165 0.010908323 -0.5542032 -1.1474731 0.3303924 0.25810212
1.9792631 1.0538585 -0.89836586 -0.81372756 0.2763746 -1.3800454 -0.13373676 -0.51121634
-0.17431615 0.68664056 2.3656657 2.5211954 1.479705 0.036525067 0.06914315 1.6321498
00000000: a688 963f b3fb c93e 693c 303f f2e0 80bf
00000010: bd45 c5be d19c 0cc0 7640 0e3f d72c 323f
00000020: 934c 89be 20d5 6cbf a4a4 97bf 5a61 123f
00000030: 32cc dbbe 88a8 cdbf cbf1 293f 8d05 40c0
00000040: 0414 9d3f 792d fbbe 6529 31be a7e8 6dbe
00000050: e202 2ac0 638b 773e df7a 153f 976f a63f
00000060: bc94 d9be 41b8 363e 87a7 e6be 4ad4 cebf
00000070: 7651 b6be 92df 1340 3642 c03f 873b d8bc
00000080: cf0b 123f ba7f 2040 be1b 8940 dba0 793d
00000090: 5e56 0bbe 65a3 48be 21bc 393f 7b6a e43e
000000a0: d797 1f3f 38d6 29c0 6b44 f4bf 627e 713f
000000b0: c9f4 853f 4f43 3abf f8ea b2bf 34c1 d93f
000000c0: c093 0bbe 315d efbf f0e4 0fbd 25cf 9f3f
000000d0: a136 dabe 3163 88bf 3716 01bf d272 dfbf
000000e0: a531 f9bf 7ce2 cbbf 68d0 3a3e ca27 fbbf
000000f0: b39c a03f 01b1 bdbe 30ef 1dbf e465 1f40
00000100: db1e 363e ef38 24bf 60a7 5240 a639 1cbf
00000110: 6461 d43e ae77 a9bd 2c2b 3c3f 7718 dc3f
00000120: 9335 2840 6441 6440 1cb5 ec3b d8dc 3bbf
00000130: 0d40 91bf ebe6 09bf 824d 64c0 87d0 0d40
00000140: e82d f3be 2a9f 0bbf 09e9 6cc0 4ab7 f3be
00000150: 2d17 b73f 1d41 acbf a579 d6bf 10d4 e43f
00000160: 23d2 0240 2c63 193e 523a 54bf 19c8 613f
00000170: 36e6 ae3f cccf 1f40 b8e4 78c0 faa5 f4bf
00000180: fb12 f2be bd8b 8c3e ee1d 77bd 8ff0 cf3f
00000190: 7a5f 51c0 898b 1fbe 1a05 1bbf c4c4 193f
000001a0: 161b 0140 a5ed ec3f 6d77 593f 29ae 38bf
000001b0: a5ab db3f 2524 cb3f 32a7 163f 9f56 4a3f
000001c0: e901 7cbf 8296 25c0 c084 78be d409 51bf
000001d0: 9c17 cbbf 1ec9 92bf 4d24 56bf fdc0 bbbe
000001e0: ef0c b1bf 7321 a93f ce9f b5bf d239 0640
000001f0: ca31 e6bf 88b8 da3f dfc6 1840 5ed9 2fbe
00000200: d910 6e3f 5caf adbf bc41 babf e04b 6cbf
00000210: 2569 763f 0a2b 083f 460c cbbf 7fa0 15bf
00000220: 7271 55bf 35b4 0940 d7d9 d43e a051 2dbf
00000230: 176e d53f 0ffa 1540 a135 d83d a06e 16bf
00000240: 177b 583e 9dbc 5940 16f8 da3f d987 bd3f
00000250: 4522 29c0 aad6 93bf 1aa3 47bf 7a7f 713e
00000260: 37b2 663f 9d77 23c0 7677 73bf dbc8 743f
00000270: 9454 5c3e e94a 293f 5889 b9bf 7efc 353d
00000280: 611b 5b40 5a52 0440 3848 893e a318 143f
00000290: 0f58 d53f 9bc6 3fc0 cd7c 1ebe 8099 3cc0
000002a0: 8e18 753e ab04 07bf 1ecf 593f 1bfe 4040
000002b0: ad8d 713f c69e 3b40 1d8f 8c3f 1cc9 62bf
000002c0: f1c6 6ebf 1fdb 9abf 6a1e 2d40 38ea 703f
000002d0: 2ac2 063f f99a debe f6f5 0cc0 33ec 22c0
000002e0: e15a 693f ea25 7f3f aa25 82bf ab19 903f
000002f0: 0886 0a3f 6c58 633e 759f 3cbf b060 c2be
00000300: 3e46 acbf 80db e8bf 159d dbbd 3902 09be
00000310: 8848 453f c792 bcbf 2d88 1cbe 6206 32bf
00000320: e6e6 0540 69a9 c2be f317 ca3d 6015 bc3f
00000330: 5099 3b40 a60d 1abf 8ddf aabd d5b1 b03e
00000340: 62b6 8ebf b19c 70c0 c875 91bf 558a b83f
00000350: 68fc a8bd 4f0a c53e 282b 8e3f 81f9 6bbf
00000360: 61a4 513f 7a4f 803f 9912 c63f 459b ea3f
00000370: 71f8 d8bf b88d cabe 6666 7f3e b8e6 1b40
00000380: 916a 483f ac8a d7bf 6f4f 0840 9ba5 84be
00000390: e85f e2bf d5d3 12c0 29d4 0dbd 96f6 21c0
000003a0: 9524 b9be a44f 8d3e a3c7 103b d3b8 323c
000003b0: 43e0 0dbf 66e0 92bf 3129 a93e f625 843e
000003c0: 7e58 fd3f d6e4 863f 4efb 65bf 7350 50bf
000003d0: f980 8d3e 54a5 b0bf 4af2 08be 13df 02bf
000003e0: ef7f 32be adc7 2f3f 1167 1740 445b 2140
000003f0: f966 bd3f 4f9b 153d ec9a 8d3d 49ea d03f

decoder.0.bias f4 [64]
2.2078223 0.81982905 -0.32969305 -0.18539628 -1.0299765 -4.0980396 -1.3509784 0.039415855
0.027991448 -0.8124493 0.049363673 3.8154562 -0.15701891 -0.042155907 -0.56422853 -0.20474412
-1.1705302 -2.9666886 1.4078847 -2.7910845 -2.5167432 1.5964134 1.6628343 -1.921497
-0.23857394 -0.66365606 0.8202113 -0.44197562 0.6011721 -3.1031935 -1.4171001 -2.1481216
-0.11759561 -0.9257237 -1.3284456 0.0055298284 1.4562922 -1.7375013 0.06735324 1.5977373
-0.027473906 -2.38958 -0.66755253 -0.1755164 -3.1629992 -1.9580536 -0.7015242 -1.0029687
-2.073445 0.2178974 -0.2287995 1.184845 0.003122111 0.924469 -2.885096 1.6893075
-0.30258623 -1.2569427 -3.2064323 2.5003276 0.27128968 0.6778456 -1.8787245 0.026736662
00000000: f64c 0d40 51e0 513f 87cd a8be 86d8 3dbe
00000010: 45d6 83bf 2423 83c0 dcec acbf 8572 213d
00000020: 524e e53c adfc 4fbf 9031 4a3d 6f30 7440
00000030: 91c9 20be acab 2cbd 4871 10bf 71a8 51be
00000040: efd3 95bf 3ade 3dc0 9135 b43f 21a1 32c0
00000050: 5212 21c0 4657 cc3f c1d7 d43f 9df3 f5bf
00000060: ba4c 74be 5de5 29bf 5ef9 513f a14a e2be
00000070: 6ae6 193f b99a 46c0 8963 b5bf d37a 09c0
00000080: f8d5 f0bd 3afc 6cbf 810a aabf 9033 b53b
00000090: c867 ba3f 7166 debf 7ff0 893d a882 cc3f
000000a0: f510 e1bc e1ee 18c0 b9e4 2abf 92ba 33be
000000b0: 946e 4ac0 80a1 fabf 1797 33bf 4761 80bf
000000c0: 53b3 04c0 7f20 5f3e 6b4a 6abe 00a9 973f
000000d0: 559c 4c3b 00aa 6c3f 6aa5 38c0 3a3b d83f
000000e0: 95ec 9abe 80e3 a0bf 3036 4dc0 5e05 2040
000000f0: 7be6 8a3e 4a87 2d3f 0b7a f0bf d806 db3c

decoder.2.weight f4 [784, 64]
-0.5291911 -0.7480363 -0.8201996 -0.57607216 -0.5714277 -0.6458435 -0.6776934 -0.48957038
-0.51282597 -0.35605186 -0.39499784 -0.49096182 -0.59974456 -0.49284434 -0.7146899 -0.40968338
-0.6208701 -0.66316926 -0.98046094 -0.60523534 -0.50211746 -0.92200536 -0.7804946 -0.8285903
-0.29108074 -0.28256625 -0.45327002 -0.63701427 -0.27037686 -0.5268376 -0.48539415 -0.46008995
-0.30137146 -0.6185758 -0.37451714 -0.5382832 -0.9638414 -0.5361781 -0.512141 -0.97758627
-0.26480606 -0.76047826 -0.5936019 -0.36478275 -0.59920573 -0.84161067 -0.52320117 -0.45626828
-0.51986796 -0.601421 -0.3455754 -0.31441882 -0.40777412 -0.43739364 -0.7151354 -0.13558462
-0.4707379 -0.4384372 -0.48662627 -0.41642892 -0.44335046 -0.57895195 -0.3481335 -0.57612824
-0.42197275 -0.59190047 -0.7563936 -0.54171723 -0.48637754 -0.5783301 -0.5247317 -0.46205327
-0.461321 -0.4757594 -0.23148622 -0.6366649 -0.6400951 -0.48412862 -0.7376312 -0.51245075
-0.82883346 -0.6837766 -0.8492611 -0.6776033 -0.51912004 -0.84383845 -0.7951782 -0.7928676
-0.43742502 -0.4018967 -0.4633581 -0.7644646 -0.39358646 -0.6636285 -0.53503895 -0.5319202
-0.26274312 -0.45897466 -0.3241046 -0.62610394 -0.91069216 -0.6310788 -0.57440126 -0.9795955
-0.18131195 -0.6646617 -0.56261796 -0.44250575 -0.5938662 -0.7375249 -0.45891336 -0.41480213
-0.435697 -0.6118704 -0.40063718 -0.29947644 -0.45869368 -0.30864534 -0.5485953 -0.31298226
-0.5834219 -0.57757294 -0.567431 -0.23639752 -0.5321628 -0.5284501 -0.494877 -0.5730927
-0.3916298 -0.7376368 -0.89139396 -0.4728519 -0.49747628 -0.51914585 -0.6383163 -0.4395342
-0.46528223 -0.48316318 -0.32162526 -0.6487898 -0.5557373 -0.43327472 -0.9024996 -0.4483141
-0.7700581 -0.5259769 -0.8179888 -0.6876122 -0.4571452 -0.98403704 -0.6938221 -0.7280324
-0.35579348 -0.30255243 -0.37553212 -0.63447535 -0.23929456 -0.5999462 -0.662462 -0.5884445
-0.24272284 -0.5688234 -0.35298762 -0.7045917 -1.000122 -0.55659264 -0.4329848 -0.9787075
-0.32572123 -0.7439487 -0.52758634 -0.2843772 -0.55635667 -0.84825677 -0.4460142 -0.5434941
-0.41182533 -0.4374186 -0.5020999 -0.28491285 -0.5462223 -0.4323896 -0.6801894 -0.2772809
-0.44553187 -0.6351642 -0.45264643 -0.3291978 -0.57587695 -0.52290314 -0.48100477 -0.4849041
-0.44289055 -0.6650759 -0.800904 -0.43099475 -0.50309724 -0.5337909 -0.63392234 -0.39904943
-0.5126262 -0.4350223 -0.37085375 -0.70249754 -0.43498313 -0.50337434 -0.7286936 -0.6101007
-0.7213394 -0.5742611 -0.9291925 -0.67516774 -0.54301757 -0.8584557 -0.72233325 -0.70709383
-0.27568507 -0.27805462 -0.43785954 -0.63838387 -0.21910544 -0.58812374 -0.5397694 -0.59085774
-0.3145094 -0.55881345 -0.44264916 -0.7207671 -0.80378205 -0.7161479 -0.57764864 -1.009205
-0.26816142 -0.7452802 -0.4794178 -0.33622113 -0.57299876 -0.7055644 -0.5110839 -0.4539689
-0.53573716 -0.5089663 -0.38509727 -0.4221591 -0.51989734 -0.38743836 -0.60106254 -0.29383388
-0.5860199 -0.5174563 -0.45619553 -0.44169372 -0.5892888 -0.48285863 -0.41899076 -0.5645582
00000000: 1179 07bf 4f7f 3fbf 9af8 51bf 7779 13bf
00000010: 1649 12bf 0056 25bf 517d 2dbf f8a8 fabe
00000020: 9048 03bf 6e4c b6be 283d cabe 595f fbbe
00000030: dc88 19bf 1856 fcbe ebf5 36bf 05c2 d1be
00000040: 58f1 1ebf 76c5 29bf 7dff 7abf b4f0 1abf
00000050: c58a 00bf 8b08 6cbf 7ece 47bf 7e1e 54bf
00000060: 8908 95be 86ac 90be 0213 e8be 5e13 23bf
00000070: d66e 8abe d4de 06bf 9585 f8be e990 ebbe
00000080: 5c4d 9abe fc5a 1ebf b6c0 bfbe eecc 09bf
00000090: 4fbe 76bf f842 09bf ac1b 03bf 1843 7abf
000000a0: a994 87be b4ae 42bf 4bf6 17bf cec4 babe
000000b0: 8c65 19bf cc73 57bf 83f0 05bf ff9b e9be
000000c0: 1116 05bf baf6 19bf 42ef b0be 81fb a0be
000000d0: c5c7 d0be 0ff2 dfbe 1d13 37bf b2d6 0abe
000000e0: 8f04 f1be d77a e0be 1427 f9be 2c36 d5be
000000f0: d5fe e2be 3236 14bf 8e3e b2be 247d 13bf
00000100: d00c d8be ca86 17bf 03a3 41bf fbad 0abf
00000110: 7a06 f9be 710d 14bf d154 06bf 3f92 ecbe
00000120: 4432 ecbe bc96 f3be b90a 6dbe 79fc 22bf
00000130: 46dd 23bf b5df f7be 66d5 3cbf f92f 03bf
00000140: 6e2e 54bf fc0b 2fbf 2d69 59bf 6977 2dbf
00000150: 0de5 04bf cc05 58bf cc90 4bbf 5ff9 4abf
00000160: 2cf6 dfbe 67c5 cdbe 463d edbe f4b3 43bf
00000170: 2a84 c9be 8fe3 29bf 50f8 08bf ec2b 08bf
00000180: 4486 86be bafe eabe 0af1 a5be 5948 20bf
00000190: 1f23 69bf 618e 21bf f60b 13bf c5c6 7abf
000001a0: d7a9 39be 4527 2abf bb07 10bf 1d90 e2be
000001b0: 9e07 18bf 6fce 3cbf b1f6 eabe f260 d4be
000001c0: ad13 dfbe 8aa3 1cbf 5120 cdbe fa54 99be
000001d0: e6d9 eabe c306 9ebe be70 0cbf 363f a0be
000001e0: 235b 15bf d2db 13bf 2843 11bf 3112 72be
000001f0: d23b 08bf 8148 07bf 8560 fdbe 34b6 12bf
00000200: b383 c8be c4d5 3cbf 6532 64bf a519 f2be
00000210: 36b5 febe bee6 04bf b268 23bf a00a e1be
00000220: 7939 eebe 2a61 f7be 11ac a4be 1717 26bf
00000230: cd44 0ebf 2fd6 ddbe 370a 67bf 6d89 e5be
00000240: 8722 45bf 6ca6 06bf b767 51bf 5a07 30bf
00000250: f00e eabe dae9 7bbf 539e 31bf 5560 3abf
00000260: 902a b6be 27e8 9abe bf45 c0be fa6c 22bf
00000270: a209 75be 1396 19bf 1c97 29bf 4ca4 16bf
00000280: 568c 78be 699e 11bf cbba b4be 1f60 34bf
00000290: ff03 80bf db7c 0ebf 2fb0 ddbe 938c 7abf
000002a0: efc4 a6be 6c73 3ebf e60f 07bf e399 91be
000002b0: 646d 0ebf 5b27 59bf f95b e4be 6e22 0bbf
000002c0: c5da d2be 55f5 dfbe 9e89 00bf 19e0 91be
000002d0: 3ad5 0bbf 2b62 ddbe e420 2ebf c3f7 8dbe
000002e0: c11c e4be 1f9a 22bf 46c1 e7be 9d8c a8be
000002f0: ac6c 13bf fbdc 05bf 4246 f6be 5a45 f8be
00000300: 8dc2 e2be 6a42 2abf 0b08 4dbf 58ab dcbe
00000310: fbca 00bf 85a6 08bf bc48 22bf 3550 ccbe
00000320: 783b 03bf 3ebb debe 8be0 bdbe e1d6 33bf
00000330: 1cb6 debe 24dd 00bf aa8b 3abf 8f2f 1cbf
00000340: b3a9 38bf c702 13bf 8fdf 6dbf cbd7 2cbf
00000350: 3303 0bbf c1c3 5bbf d5ea 38bf 1a04 35bf
00000360: 9826 8dbe 2d5d 8ebe 202f e0be 206d 23bf
00000370: 2d5d 60be 478f 16bf 542e 0abf 7442 17bf
00000380: 6007 a1be 660e 0fbf e9a2 e2be 3184 38bf
00000390: a9c4 4dbf 7855 37bf c8e0 13bf a12d 81bf
000003a0: 744c 89be afca 3ebf 4076 f5be 2d25 acbe
000003b0: 0cb0 12bf de9f 34bf 65d6 02bf 9d6e e8be
000003c0: 1226 09bf 9e4b 02bf 782b c5be 3d25 d8be
000003d0: fe17 05bf 525e c6be 3cdf 19bf 6571 96be
000003e0: 6605 16bf 0478 04bf 7692 e9be ae25 e2be
000003f0: a1db 16bf 3f39 f7be f585 d6be e386 10bf

decoder.2.bias f4 [784]
-0.62147593 -0.58778495 -0.55340576 -0.76333654 -0.7366821 -0.8194948 -0.5800318 -0.7280509
-0.55920726 -0.56189096 -0.7599458 -0.7078759 -0.47412094 -0.24297215 -0.13301793 -0.60773855
-0.6594962 -0.6781491 -0.58529425 -0.73865503 -0.7865726 -0.61562294 -0.66119915 -0.7058769
-0.55778724 -0.7877025 -0.7328407 -0.6664843 -0.6372616 -0.6740473 -0.7118291 -0.58875173
-0.6124645 -0.33064672 -0.025970362 -0.14579223 0.27558774 0.19345815 -0.11008106 -0.4904408
-0.4571753 -0.412802 -0.75371754 -0.9071956 -0.9005711 -0.5271171 -0.37588432 -0.55605984
-0.26404595 0.2070583 0.22506526 0.14484891 -0.7013399 -0.7457572 -0.69662344 -0.7121102
-0.66181743 -0.5948314 -0.33636045 -0.52527934 -0.085220605 0.40551704 0.86137736 0.84112006
0.8982422 0.8987446 0.42130023 -0.11402597 -0.7031556 -0.84444237 -0.8693468 -0.74609697
-0.39792857 -0.05216783 -0.041682653 -0.38742396 -0.033019446 0.17192337 0.40424666 0.051146425
0.25968093 0.35742044 -0.72935677 -0.6230147 -0.600188 -0.62292564 -0.16069931 -0.19687048
0.061621502 0.71995413 1.0436627 1.2210975 0.99083143 0.6892778 0.44653937 -0.053493135
-0.48671767 -0.6504494 -0.6931578 -0.71155477 -0.35282815 0.27587527 0.16420414 0.17895119
0.10703626 0.14572087 0.34237105 -0.022680143 -0.18099704 0.01770253 -0.3666786 -0.7055536
-0.6289287 -0.3361754 0.014321859 0.16109607 0.495108 0.7079786 0.91905355 0.91588616
0.99966246 0.51438075 0.19798215 -0.42392534 -1.0347642 -1.2853074 -1.198698 -0.7373063
-0.10075248 0.19903179 -0.07375453 -0.6631716 -0.72654283 -0.21271607 0.21118033 0.3806724
0.15720752 -0.42781624 -0.5230571 -0.06990066 -0.7638446 -0.74924767 -0.51665276 0.19812647
0.34516862 0.8643315 1.0258074 1.0850712 0.9410902 0.2156938 -0.40649483 -1.1777215
-1.4077252 -1.4824705 -1.436929 -0.7440639 0.11848338 0.09991556 -0.25282034 -0.64246315
-0.74369925 -0.41033456 0.15135749 0.4888618 0.06649599 -0.4148404 -0.5981796 -0.0015431071
-0.6028125 -0.71452546 -0.042275783 0.18423092 0.45952216 0.9814998 1.221016 1.4674152
0.9225726 0.13523182 -0.78549206 -1.0820714 -0.70368606 -0.82514024 -1.0386642 -0.27973133
0.33553833 0.17206162 -0.20097683 -0.33908394 0.06616844 0.15474021 0.10661565 0.6470171
0.57042587 0.091155805 -0.116808884 -0.07780533 -0.49131542 -0.48453113 -0.30472398 0.44593468
0.7868737 1.1269815 1.6615664 1.6928387 1.1794506 0.068436004 -0.58137965 -0.33082578
0.06890656 -0.2533442 -0.06226473 0.501918 0.94872445 0.4315173 -0.109165095 0.10614015
0.37400052 0.5036776 0.46302074 0.59027535 0.52523243 -0.22567306 -0.29754114 -0.124067575
-0.3960755 -0.4163357 0.0420972 0.583775 0.9079869 1.6744213 1.831453 1.7461771
1.0178996 0.1604995 -0.16220506 0.14934582 0.07804238 0.22450413 0.22729722 0.1699734
0.10718106 0.051405992 -0.026799977 0.32961014 0.52077323 0.51786536 0.47329837 0.72353095
0.31325632 -0.31446597 -0.57530516 -0.73903894 -0.6814247 -0.62117046 -0.054579593 0.64724714
00000000: 0c19 1fbf 1379 16bf 00ac 0dbf 066a 43bf
00000010: 3397 3cbf 69ca 51bf f77c 14bf 8b61 3abf
00000020: 3528 0fbf 16d8 0fbf cf8b 42bf 5b37 35bf
00000030: fbbf f2be b1cd 78be da35 08be c194 1bbf
00000040: bed4 28bf 2e9b 2dbf d8d5 15bf 7f18 3dbf
00000050: d25c 49bf 7799 1dbf 5944 29bf 59b4 34bf
00000060: 25cb 0ebf dfa6 49bf 739b 3bbf b79e 2abf
00000070: 9423 23bf 5d8e 2cbf 6f3a 36bf 6fb8 16bf
00000080: 79ca 1cbf 874a a9be ccbf d4bc 8f4a 15be
00000090: d619 8d3e e519 463e 2e72 e1bd 0e1b fbbe
000000a0: e212 eabe c95a d3be a2f3 40bf f93d 68bf
000000b0: d48b 66bf 25f1 06bf e973 c0be f059 0ebf
000000c0: 0831 87be 1707 543e 8277 663e 4653 143e
000000d0: 038b 33bf f2e9 3ebf ea55 32bf db4c 36bf
000000e0: de6c 29bf df46 18bf 7037 acbe b578 06bf
000000f0: 2488 aebd ee9f cf3e 3a83 5c3f a553 573f
00000100: 33f3 653f 2014 663f aab4 d73e 7386 e9bd
00000110: 0102 34bf 602d 58bf 838d 5ebf 3600 3fbf
00000120: 4bbd cbbe efad 55bd 6ebb 2abd 6f5c c6be
00000130: 663f 07bd ae0c 303e 6bf9 ce3e ea7e 513d
00000140: e6f4 843e d0ff b63e 20b7 3abf e47d 1fbf
00000150: eca5 19bf 0e78 1fbf 5c8e 24be 6a98 49be
00000160: d466 7c3d ea4e 383f bd96 853f ec4c 9c3f
00000170: 21a7 7d3f 8374 303f cfa0 e43e 9e1b 5bbd
00000180: 0f33 f9be da83 26bf ca72 31bf 7428 36bf
00000190: e4a5 b4be 863f 8d3e 2125 283e fb3e 373e
000001a0: d435 db3d da37 153e 424b af3e b5cb b9bc
000001b0: 4a57 39be e504 913c 4cbd bbbe 299f 34bf
000001c0: 7901 21bf 2f1f acbe 3ba6 6a3c 5ef6 243e
000001d0: cc7e fd3e 163e 353f 1847 6b3f 8477 6a3f
000001e0: e1e9 7f3f 75ae 033f d5bb 4a3e be0c d9be
000001f0: 2773 84bf f484 a4bf f06e 99bf 1bc0 3cbf
00000200: 5157 cebd fdce 4b3e 9d0c 97bd 9dc5 29bf
00000210: b6fe 39bf 3ed2 59be a83f 583e 7ee7 c23e
00000220: 02fb 203e bb0a dbbe 12e7 05bf 1428 8fbd
00000230: 528b 43bf b2ce 3fbf 5b43 04bf aae1 4a3e
00000240: f1b9 b03e d444 5d3f a84d 833f 9de3 8a3f
00000250: 4aeb 703f d6de 5c3e 1720 d0be 94bf 96bf
00000260: 5730 b4bf 98c1 bdbf 4aed b7bf f97a 3ebf
00000270: 6aa7 f23d 87a0 cc3d ab71 81be 7778 24bf
00000280: 1363 3ebf 5f17 d2be 75fd 1a3e 184c fa3e
00000290: 0d2f 883d f665 d4be 4c22 19bf 1542 caba
000002a0: ec51 1abf 24eb 36bf 5f29 2dbd 08a7 3c3e
000002b0: 7d46 eb3e 9243 7b3f 414a 9c3f 43d4 bb3f
000002c0: b82d 6c3f 367a 0a3e 0216 49bf 5181 8abf
000002d0: c524 34bf 643c 53bf f3f2 84bf f238 8fbe
000002e0: aecb ab3e ec30 303e dfcc 4dbe 699c adbe
000002f0: 5283 873d 3874 1e3e 4e59 da3d eaa2 253f
00000300: 6e07 123f e5af ba3d 7f39 efbd 6758 9fbd
00000310: b28d fbbe 7714 f8be c804 9cbe 8d51 e43e
00000320: 8e70 493f ee40 903f 35ae d43f f0ae d83f
00000330: 3df8 963f 2d28 8c3d 4cd5 14bf ff61 a9be
00000340: e21e 8d3d 55b6 81be 4d09 7fbd b37d 003f
00000350: 9bdf 723f d6ef dc3e f391 dfbd 0260 d93d
00000360: ff7c bf3e 04f1 003f 0e11 ed3e 491c 173f
00000370: a275 063f d716 67be 5057 98be 2417 febd
00000380: 68ca cabe f429 d5be 1d6e 2c3d 4772 153f
00000390: d471 683f 7053 d63f 0d6d ea3f bb82 df3f
000003a0: 894a 823f fb59 243e 1519 26be 1cee 183e
000003b0: afd4 9f3d 69e4 653e 9ac0 683e 820d 2e3e
000003c0: be81 db3d 178f 523d a08b dbbc a9c2 a83e
000003d0: 6551 053f d392 043f 2a54 f23e 5339 393f
000003e0: 2263 a03e af01 a1be 3347 13bf a831 3dbf
000003f0: d971 2ebf 0705 1fbf da8e 5fbd fdb1 253f
