trained_models/checkpoint.pth.tar (torch_old, 156148 bytes, 7 tensors)

encoder.0.weight f4 [64, 1, 3, 3]
0.19082387 -0.18364453 -0.029602155 0.21413976 -0.2958226 0.23004414 -0.033306397 0.22596551
0.07760842 0.062067516 0.23518011 0.0721453 0.20562536 -0.07157256 -0.05423072 0.0902022
0.09164432 -0.014739482 0.37646407 0.11436297 -0.16624446 -0.23001368 -0.21818066 -0.079116195
-0.20480578 0.009161029 0.30817816 0.15295467 -0.4045073 0.19749719 0.22038701 0.40137535
0.36130676 -0.39299208 -0.40605375 -0.09399277 0.3208403 -0.011586761 0.1428755 -0.14060853
0.3642416 -0.11908132 0.26783073 0.027877381 -0.13644555 0.22089472 -0.0488355 0.2208916
0.032774925 -0.0010619379 -0.61032826 -0.030877136 0.19929652 -0.11992353 0.36232814 0.2896083
-0.050024528 -0.21621677 0.22789669 0.11070723 -0.21029976 0.28003925 0.23075023 0.32369232
-0.23335111 -0.11186788 0.007108484 -0.09716405 -0.24171233 -0.17649618 0.13430671 0.052121855
0.18887085 0.05778787 0.11603033 0.12291113 0.1754153 0.20492545 -0.3153039 0.18917358
-0.2316405 -0.1387703 -0.031912267 -0.20391874 0.28160328 -0.30684662 -0.33809495 0.35972735
0.082841314 0.43682435 0.2422706 -0.21596794 -0.022321094 0.28457052 -0.3683277 -0.31354004
0.32513708 0.13802913 -0.17755091 -0.109725244 0.3441149 -0.099955775 0.19735822 0.20983826
-0.27412474 -0.2894288 0.37935334 0.04911674 0.19413789 0.10331336 0.111469984 0.26088494
0.3835001 -0.2198773 0.08048338 0.3132937 0.23232764 0.2356061 -0.1870597 -0.19103324
-0.3347 0.0023330643 0.3554465 -0.24108818 0.17655444 -0.07159591 -0.26397303 -0.041442964
0.21928096 0.33472347 -0.1848231 0.11438402 0.3173145 0.24819744 0.24821925 0.24969412
0.23776203 0.1311725 -0.27337116 -0.3870912 -0.111536 -0.12794486 -0.12400863 0.22210616
0.09880626 -0.074980356 0.14238898 0.119569525 0.22979602 0.2450511 -0.10382446 0.34944832
-0.019463375 0.07107171 -0.4968537 -0.2678004 -0.088672936 -0.38009185 0.23757064 -0.18035787
-0.36659253 0.18500161 0.19658701 0.32032534 -0.008225999 0.2238098 -0.06330573 0.1385899
-0.2633298 -0.28292155 -0.25703716 0.15428674 0.06662705 0.08484312 0.3589054 0.3422109
0.23456722 0.016770191 -0.2305859 0.28737938 -0.22548904 -0.24035333 -0.39718306 -0.23300245
-0.29741737 0.31149867 -0.32827613 -0.3129108 -0.0076557803 -0.4618452 0.12753952 -0.02536789
-0.4849322 0.043622192 0.33457962 -0.19509773 0.2496654 0.34697455 0.38542646 -0.15319172
0.11262291 -0.20246224 0.33562046 -0.10494704 0.22756426 0.06524444 -0.015508334 -0.003529372
0.08008504 0.18414535 0.058190893 0.12923768 -0.26903862 0.25785807 0.32094276 0.3073035
0.27529243 -0.19159023 -0.06862312 0.2533401 -0.3341485 0.31839642 -0.3706733 -0.31836998
0.20020089 -0.22185172 -0.056073725 0.26896253 0.27807993 0.35883427 -0.053813215 -0.25459316
0.37308177 -0.043566693 -0.11848887 0.034928422 -0.24460305 0.22978012 0.1801323 -0.28690165
-0.2432763 -0.030235609 0.13356331 0.042450424 -0.080420695 -0.00010206785 -0.36166012 -0.31430405
-0.13973667 0.32913512 0.35257638 -0.0012414355 0.021090733 0.17180447 0.050995626 -0.13170452
00000000: 5567 433e 500d 3cbe 3880 f2bc 7447 5b3e
00000010: 0f76 97be b190 6b3e 4a6c 08bd 8163 673e
00000020: 2af1 9e3d 823a 7e3d 0ed3 703e eac0 933d
00000030: 748f 523e a294 92bd 0821 5ebd eebb b83d
00000040: 04b0 bb3d de7d 71bc e6bf c03e 2237 ea3d
00000050: fd3b 2abe b588 6bbe c06a 5fbe ac07 a2bd
00000060: 9bb8 51be 2418 163c 87c9 9d3e 26a0 1c3e
00000070: 951b cfbe b43c 4a3e 22ad 613e 1281 cd3e
00000080: 33fd b83e 4236 c9be 47e6 cfbe 487f c0bd
00000090: 2e45 a43e 66d6 3dbc f44d 123e affb 0fbe
000000a0: e07d ba3e e8e0 f3bd 1c21 893e 1b5f e43c
000000b0: 62b8 0bbe 3a32 623e bc07 48bd 6831 623e
000000c0: 003f 063d b930 8bba 793e 1cbf 0cf2 fcbc
000000d0: 6314 4c3e 789a f5bd 1383 b93e 8a47 943e
000000e0: 85e6 4cbd ee67 5dbe c05d 693e 79ba e23d
000000f0: d258 57be 4e61 8f3e ca49 6c3e 00bb a53e
00000100: 98f3 6ebe fd1a e5bd 49ee e83b f2fd c6bd
00000110: 7083 77be 6abb 34be b387 093e ba7d 553d
00000120: 5c67 413e f9b2 6c3d 4fa1 ed3d d5b8 fb3d
00000130: 12a0 333e fad7 513e 836f a1be b8b6 413e
00000140: 2b33 6dbe cd19 0ebe 70b6 02bd 13d0 50be
00000150: 4e2e 903e 001b 9dbe c81a adbe 2f2e b83e
00000160: b5a8 a93d 71a7 df3e c915 783e b326 5dbe
00000170: bada b6bc 3ab3 913e 7395 bcbe 5288 a0be
00000180: 5e78 a63e 8257 0d3e e8cf 35be a1b7 e0bd
00000190: d42f b03e 9db5 ccbd 4618 4a3e d7df 563e
000001a0: 145a 8cbe 0330 94be 9a3a c23e a22e 493d
000001b0: 15cc 463e f495 d33d 604a e43d b692 853e
000001c0: 205a c43e 8427 61be 78d4 a43d 0868 a03e
000001d0: 4ce7 6d3e ba42 713e 948c 3fbe 389e 43be
000001e0: cc5d abbe 53e6 183b 15fd b53e d2df 76be
000001f0: b0ca 343e e0a0 92bd 7927 87be 19c0 29bd
00000200: 308b 603e e060 ab3e 4442 3dbe 2b42 ea3d
00000210: 0c77 a23e 7827 7e3e 302d 7e3e d1af 7f3e
00000220: e477 733e 1552 063e 4ef7 8bbe d130 c6be
00000230: fd6c e4bd fa03 03be 3df8 fdbd cc6f 633e
00000240: f05a ca3d 4d8f 99bd 6bce 113e dee0 f43d
00000250: a64f 6b3e adee 7a3e eba1 d4bd e4ea b23e
00000260: a871 9fbc 0b8e 913d 9c63 febe 221d 89be
00000270: 289a b5bd 669b c2be b845 733e bcaf 38be
00000280: 04b2 bbbe 1071 3d3e 1b4e 493e af01 a43e
00000290: 57c6 06bc 652e 653e 6fa6 81bd 83ea 0d3e
000002a0: 2ad3 86be 18db 90be 609a 83be 58fd 1d3e
000002b0: c373 883d 3bc2 ad3d 73c2 b73e 4436 af3e
000002c0: 6432 703e a461 893c b61e 6cbe 6423 933e
000002d0: 99e6 66be 2f1f 76be 945b cbbe 3298 6ebe
000002e0: 1747 98be c17c 9f3e cf13 a8be d835 a0be
000002f0: 57dd fabb f976 ecbe b899 023e 52d0 cfbc
00000300: 0949 f8be 2fad 323d 054e ab3e b3c7 47be
00000310: 49a8 7f3e a6a6 b13e 9e56 c53e 4ade 1cbe
00000320: d7a6 e63d 4352 4fbe 72d6 ab3e 79ee d6bd
00000330: 9b06 693e e19e 853d ab16 7ebc 094d 67bb
00000340: a003 a43d 9990 3c3e 9359 6e3d e256 043e
00000350: 6ebf 89be f905 843e 9c52 a43e e256 9d3e
00000360: 21f3 8c3e 3b30 44be 478a 8cbd cbb5 813e
00000370: 8315 abbe db04 a33e e4c8 bdbe 6401 a3be
00000380: 7601 4d3e 192d 63be 90ad 65bd 75b5 893e
00000390: 7e60 8e3e 20b9 b73e 3f6b 5cbd 095a 82be
000003a0: 9304 bf3e fd72 32bd 4baa f2bd 1b11 0f3d
000003b0: 3979 7abe 7b4b 6b3e 9a74 383e c6e4 92be
000003c0: 6c1d 79be abb0 f7bc d2c4 083e 7fe0 2d3d
000003d0: 9bb3 a4bd 420d d6b8 842b b9be 76ec a0be
000003e0: 2117 0fbe 6684 a83e e484 b43e aab7 a2ba
000003f0: 79c6 ac3c 83ed 2f3e cae0 503d 8ddd 06be

encoder.0.bias f4 [64]
0.03366772 0.007370874 0.15526845 0.007407921 0.24336536 0.16327508 0.00044100595 0.35438442
0.07259645 0.009720814 -0.0002791673 0.19576275 0.10447783 0.297002 0.006478694 0.25409332
0.15853643 0.144299 -6.740242e-05 0.3117384 0.11104105 0.00058394345 0.0034807536 0.32978758
0.23596203 -4.2627376e-05 0.3339749 0.17204735 -0.060513884 -0.17486387 0.26969427 0.31909513
0.00030815156 0.21780778 -1.5445528e-05 0.00024862384 0.0021387432 0.13917187 0.13897923 0.21287918
0.12940788 0.15317653 0.2851471 0.06157461 0.039112896 7.203529e-05 0.24446698 0.04339984
0.22139445 0.33176053 0.0031916753 0.29473487 0.00011223557 0.3005476 0.26940015 -0.0051635015
0.29481652 0.00044646332 -2.4198811e-05 0.008940233 0.1612721 -0.027375193 -0.31466612 0.00045655516
00000000: 2ae7 093d 5f87 f13b b1fe 1e3e 25be f23b
00000010: c534 793e 9531 273e d136 e739 e071 b53e
00000020: 73ad 943d 0d44 1f3c 335d 92b9 0876 483e
00000030: 79f8 d53d a510 983e 394b d43b 8518 823e
00000040: 6057 223e 1ec3 133e 665a 8db8 2d9c 9f3e
00000050: 7d69 e33d c813 193a 5b1d 643b ebd9 a83e
00000060: 08a0 713e ccca 32b8 c2fe aa3e 2e2d 303e
00000070: 68dd 77bd 840f 33be 5e15 8a3e 7060 a33e
00000080: 678f a139 0109 5f3e 0591 81b7 ba59 8239
00000090: 282a 0c3b 1283 0e3e 9250 0e3e 00fd 593e
000000a0: 8083 043e 4fda 1c3e cdfe 913e a935 7c3d
000000b0: d834 203d a711 9738 8d55 7a3e 08c4 313d
000000c0: 3ab5 623e 84dc a93e 6d2b 513b 7de7 963e
000000d0: 0360 eb38 60e1 993e d1ee 893e 9732 a9bb
000000e0: 31f2 963e 4b13 ea39 8dfe cab7 0e7a 123c
000000f0: 8324 253e f141 e0bc eb1b a1be cc5d ef39

encoder.3.weight f4 [32, 64, 3, 3]
0.013583793 -0.004038717 0.04651299 -0.01689497 0.12988938 0.0145788295 -0.04739045 0.051606044
0.055154886 0.0032986354 -0.10759671 -0.049702324 -0.013486906 -0.19258472 0.021195868 -0.075137705
0.09520509 0.09570116 -0.0019476685 0.028672146 -0.0072172964 0.052143328 0.068389185 -0.11192936
0.054563336 -0.06899864 0.12128315 0.001798717 -0.033572067 -0.107120804 0.07808451 0.14854857
-0.032898623 -0.092761576 0.0522652 -0.019688252 -0.016137399 -0.05331415 0.02822587 -0.0053547467
-0.012634571 0.036143854 -0.018650537 -0.02586714 0.017566187 -0.06062745 1.051281e-05 -0.016381498
0.019250128 -0.11887324 -0.072824255 -0.053574875 -0.03228129 0.0071909367 -0.02177789 -0.061458234
0.0208701 -0.041431304 0.057917666 0.065026306 -0.022673856 0.0038747888 0.040641323 0.0390343
-0.0016069948 -0.004378246 0.02557547 0.036001224 -0.018905904 -0.01799423 -0.059155554 0.016612
0.037277192 -0.03311985 -0.00760844 -0.0037705654 -0.0035979291 0.053485442 -0.008746454 -0.028718239
0.033549476 -0.03920155 0.034182556 -0.041675806 0.00312129 -0.018024813 0.16079429 -0.07664752
-0.25972238 0.007609612 0.009180252 0.06925959 -0.1217502 -0.12294634 -0.14243743 0.038074065
0.19812582 -0.011220295 0.017184028 -0.0048284032 -0.054517273 -0.0216099 0.032586828 0.006088484
-0.0022777666 0.0239162 0.043706693 0.057637665 0.017031135 -0.025711786 0.030623972 0.02452421
0.023704736 -0.025520686 -0.030145403 0.028370861 0.049948193 0.07664272 -0.020885501 0.025888063
-0.0013474457 0.007631862 -0.0101378355 -0.0063209143 -0.017494455 -0.014041341 -0.04114241 0.0067237327
0.016925674 -0.03375951 0.022395581 0.020348188 -0.07364015 0.03361152 0.02374967 -0.016913932
0.0061059315 -0.019403882 -0.020286504 0.038133077 -0.11179449 0.017865835 0.012394188 0.05759331
-0.039477732 -0.051166035 -0.016212886 -0.055001035 0.063546896 0.028103786 -0.054426763 0.0018898608
0.0049826056 0.016877396 0.057502914 0.019521989 -0.04967413 0.09243219 -0.12043271 -0.008738534
0.037921518 0.036560416 -0.025690714 0.07517334 0.112074405 -0.08584994 -0.06814113 -0.016259868
-0.075015105 -0.105566315 0.0062547587 -0.040371746 0.01132264 -0.009152514 -0.022289904 0.03992583
0.05208778 0.025801316 0.023833267 0.005949994 0.033015784 0.06420918 -0.022284769 -0.036497675
0.11332409 -0.120433904 -0.0016270177 -0.0376259 -0.08604918 0.013140582 0.046324655 0.04558724
-0.0070135365 0.0037768094 -0.019639818 0.033042364 0.0686356 -0.11308887 0.004119365 -0.032188646
0.044984497 -0.0036957853 -0.061329965 -0.0042830505 0.029634228 -0.050889544 -0.0070748143 -0.0033297634
-0.021049326 0.036562487 -0.048395716 0.005063162 -0.022309316 -0.018129267 -0.017510943 0.029954845
-0.004891651 0.0032152133 -0.026744816 -0.05579039 0.13998856 -0.073124744 -0.0273666 0.061196472
0.013073839 0.012911576 -0.033686005 0.014571727 -0.028248876 0.06294069 0.007917185 -0.005252356
0.022308819 0.01818935 0.0014405452 -0.009530582 -0.033308093 0.03113411 -0.023645978 -0.033055518
-0.005366347 -0.06968556 0.009165379 0.024989469 -0.016200477 -0.006998495 0.0324525 0.018255098
0.039204024 0.001436972 -0.0117036505 -0.030254733 0.009219735 0.0029919352 -0.013848984 -0.07341054
00000000: 8f8e 5e3c 3757 84bb 6884 3e3d 5267 8abc
00000010: b901 053e 0bdc 6e3c 7d1c 42bd dc60 533d
00000020: 17ea 613d eb2d 583b aa5b dcbd aa94 4bbd
00000030: 2ff8 5cbc ee34 45be f5a2 ad3c cce1 99bd
00000040: e3fa c23d f8fe c33d e948 ffba d9e1 ea3c
00000050: 127f ecbb 3e94 553d a10f 8c3d 383b e5bd
00000060: ce7d 5f3d 294f 8dbd 4d63 f83d edc2 eb3a
00000070: dd82 09bd 2762 dbbd c6ea 9f3d 1e1d 183e
00000080: b5c0 06bd c8f9 bdbd 0914 563d 4249 a1bc
00000090: 9432 84bc f05f 5abd f139 e73c df76 afbb
000000a0: 3b01 4fbc 940b 143d 03c9 98bc 53e7 d3bc
000000b0: f7e6 8f3c 7d54 78bd 2d60 3037 7e32 86bc
000000c0: 72b2 9d3c d073 f3bd e224 95bd 5471 5bbd
000000d0: 6339 04bd f3a1 eb3b 8c67 b2bc a1bb 7bbd
000000e0: c6f7 aa3c dfb3 29bd 133b 6d3d 832c 853d
000000f0: 86be b9bc 2bf0 7d3b 8477 263d 6ee2 1f3d
00000100: cca1 d2ba 6477 8fbb a683 d13c 0576 133d
00000110: 8ee0 9abc a368 93bc 184d 72bd e415 883c
00000120: f8af 183d aea8 07bd 3850 f9bb 971b 77bb
00000130: 3ccb 6bbb 8d13 5b3d 494d 0fbc 8342 ebbc
00000140: 2d6b 093d ce91 20bd 0203 0c3d 40b4 2abd
00000150: 8e8e 4c3b c6a8 93bc 42a7 243e 60f9 9cbd
00000160: 55fa 84be 0d5a f93b c568 163c f9d7 8d3d
00000170: 2b58 f9bd 4acb fbbd 1edb 11be 8df3 1b3d
00000180: 7fe1 4a3e 54d5 37bc 85c5 8c3c 9537 9ebb
00000190: 814d 5fbd 3f07 b1bc c479 053d e881 c73b
000001a0: 9546 15bb e8eb c33c ca05 333d 7915 6c3d
000001b0: e184 8b3c 86a1 d2bc 20df fa3c ffe6 c83c
000001c0: 6f30 c23c c210 d1bc 7ef3 f6bc 026a e83c
000001d0: 7a96 4c3d dcf6 9c3d 1218 abbc 3413 d43c
000001e0: c69c b0ba b314 fa3b 2a19 26bc ac1f cfbb
000001f0: 8850 8fbc a70d 66bc f284 28bd c252 dc3b
00000200: b6a7 8a3c 6947 0abd f076 b73c 3eb1 a63c
00000210: a6d0 96bd 3cac 093d ab8e c23c 168f 8abc
00000220: 4414 c83b e4f4 9ebc e22f a6bc 6e31 1c3d
00000230: 82f4 e4bd 5f5b 923c fe10 4b3c f6e6 6b3d
00000240: 67b3 21bd 7a93 51bd e3d0 84bc c448 61bd
00000250: e024 823d e939 e63c 99ee 5ebd 35b5 f73a
00000260: 2045 a33b 7742 8a3c 2d88 6b3d 94ec 9f3c
00000270: 1a77 4bbd 174d bd3d 6da5 f6bd 112c 0fbc
00000280: 9853 1b3d 60c0 153d 5575 d2bc 7bf4 993d
00000290: 4487 e53d 18d2 afbd 948d 8bbd 6a33 85bc
000002a0: 85a1 99bd 2733 d8bd b8f4 cc3b d85c 25bd
000002b0: 9882 393c 6df4 15bc 5199 b6bc 4489 233d
000002c0: ff59 553d 485d d33c fc3d c33c 2bf8 c23b
000002d0: 8f3b 073d 1a80 833d 8c8e b6bc 967e 15bd
000002e0: 7616 e83d 0da6 f6bd a841 d5ba 9e1d 1abd
000002f0: 8d3a b0bd 984b 573c ecbe 3d3d b0b9 3a3d
00000300: cfd1 e5bb 5984 773b afe3 a0bc 6e57 073d
00000310: d290 8c3d 239b e7bd bdfb 863b 3ed8 03bd
00000320: aa41 383d fd34 72bb 2135 7bbd d558 8cbb
00000330: 7bc3 f23c 8e71 50bd d8d3 e7bb 2938 5abb
00000340: a36f acbc 8cc2 153d 963a 46bd e2e8 a53b
00000350: 07c2 b6bc d483 94bc 1c73 8fbc dd63 f53c
00000360: 254a a0bb 54b6 523b f217 dbbc 7784 64bd
00000370: 2959 0f3e 6dc2 95bd ec2f e0bc 27a9 7a3d
00000380: a833 563c 138b 533c 56fa 09bd 41be 6e3c
00000390: 306a e7bc 0ce7 803d 15b7 013c f51b acbb
000003a0: fcc0 b63c d501 953c add0 bc3a 2926 1cbc
000003b0: 116e 08bd f60c ff3c 36b5 c1bc 3965 07bd
000003c0: 2ed8 afbb 4eb7 8ebd 632a 163c b7b6 cc3c
000003d0: ddb6 84bc a253 e5bb eaec 043d b78b 953c
000003e0: 6694 203d c758 bc3a abc0 3fbc c6d8 f7bc
000003f0: 5f0e 173c 5814 443b d9e6 62bc 4458 96bd

encoder.3.bias f4 [32]
0.005303336 -0.0051423493 -0.02108682 -0.001407191 0.03730324 0.03315389 -0.034905586 -0.019345075
0.013831312 -0.011002403 -0.0077478434 0.036517978 -0.02719925 0.15594552 0.035158783 0.025925776
-0.032104917 0.008463973 0.118039876 0.008554867 0.009418649 -0.001929222 0.015344785 0.046138186
-0.034099754 0.021550553 0.015202919 -0.008184734 -0.047183238 -0.0076060933 -0.030821852 -0.04167786
00000000: 9bc7 ad3b 2781 a8bb 44be acbc 7f71 b8ba
00000010: 48cb 183d 60cc 073d 29f9 0ebd 9079 9ebc
00000020: ba9c 623c 6c43 34bc 9fe1 fdbb e093 153d
00000030: f6d0 debc 2fb0 1f3e a802 103d 4b62 d43c
00000040: 7280 03bd 7aac 0a3c e4be f13d b629 0c3c
00000050: ad50 1a3c f3dd fcba b168 7b3c 65fb 3c3d
00000060: 2fac 0bbd c98a b03c aa15 793c 4319 06bc
00000070: 3643 41bd 893c f9bb 1c7e fcbc 67b6 2abd

decoder.0.weight f4 [32, 64, 3, 3]
-0.0059322114 -0.17108344 -0.007788557 -0.13325325 0.034204185 0.0057443157 -0.07026855 0.13571095
0.036073714 -0.018406408 -0.03944806 -0.044582587 -0.1021987 0.07755545 0.043594804 0.035028815
-0.045590308 0.03685465 0.008758038 -0.04074892 0.013970115 -0.048855986 0.04582552 -0.015410518
-0.029984863 -0.018455243 -0.045379225 -0.069278955 0.0020253416 0.010088806 -0.0688936 -0.030072698
0.01818365 -0.061026704 0.010835341 -0.016408635 -0.0066306167 0.06323165 0.0006509684 -0.08868123
0.0019801978 0.05701237 0.005302299 0.049066134 -0.020305993 -0.09676862 0.05116 -0.054822445
-0.011890227 -0.013612717 0.045579817 -0.01845245 -0.0045239804 0.04144067 0.029094368 -0.030142674
0.017244011 0.021145899 0.039029498 0.010396734 -0.05966505 -0.04011127 -0.0023585237 -0.082392015
0.01960509 -0.011068841 0.005195103 0.029294845 0.023628516 -0.08000742 0.049734704 -0.017595181
-0.017691813 -0.005662293 0.020954698 0.021014806 0.057293735 0.0027047026 -0.0052244333 -0.033176195
-0.026534354 -0.024558818 0.015896043 -0.014034321 0.004990612 0.031220105 0.011878662 -0.056027252
-0.048181497 0.08612583 0.035383068 -0.026272558 0.02925728 -0.12620634 -0.032629725 0.009519099
-0.009501792 0.05469511 -0.020053826 -0.068444654 -0.0055599525 -0.021103289 -0.051601496 0.009286545
0.061161585 -0.043508906 0.013190695 0.038092762 -0.03821064 0.011039185 0.04191431 -0.040051658
-0.036364626 0.057908475 -0.07973123 -0.041118573 0.011981543 -0.030366689 0.021149464 -0.02679476
0.016950117 -0.01091851 0.015828637 -0.013483181 0.028673107 0.0025501326 -0.0063062226 0.07617211
-0.0016433779 0.03853265 -0.027205758 0.010739401 0.026906315 -0.03553282 0.00821328 0.007212598
0.016511586 -0.022365732 0.054397773 -0.0645965 -0.038694996 0.0139015 -0.046521142 -0.04392209
0.007248856 -0.0011737137 -0.0046535633 -0.009620571 -0.020698206 0.06192663 -0.0073817037 -0.033545174
0.031398375 0.030873684 0.026088508 0.01364285 0.004208176 -0.008405926 -0.020728305 0.011225425
0.10070902 -0.029160317 -0.02490274 0.01208834 0.029780587 -0.022618104 -0.0060303276 -0.00032263243
0.030216135 -0.011145916 -0.024135513 -0.016842788 -0.045879208 -0.025628533 0.032694906 -0.019428702
0.046543013 -0.005411752 -0.029114509 0.052840117 -0.044491887 -0.0013982435 -0.028178329 -0.020780416
0.010832684 -0.056932837 0.0029905615 0.02424292 -0.03531895 -0.02988601 -0.025062777 -0.02780249
0.00065535697 -0.034089085 -0.009336843 -0.004814917 0.01567154 0.068130575 -0.008673862 -0.009939913
-0.04590981 -0.008875689 -0.039213907 0.009527601 -0.028382128 0.081672624 -0.015144727 -0.0042988844
-0.032189805 -0.045770284 0.02417172 -0.038976014 -0.034175843 -0.03930469 0.08158389 0.029600237
0.034800828 0.015430271 0.023754401 -0.031716973 -0.0046949033 -0.02424486 -0.027252078 -0.027877944
0.005604677 0.0077687018 -0.041976713 -0.049152788 0.07459505 -0.058155075 0.06824382 0.015744712
-0.0746761 0.07095513 -0.013131342 -0.043384727 0.008373473 -0.015134883 0.013290354 -0.023122743
-0.028475143 -0.041222695 -0.0003998758 0.045321736 -0.033637106 0.04146543 0.02984507 -0.018256774
0.0032807058 0.009400597 -9.343004e-05 -0.059744246 -0.049849566 0.0013778324 -0.048236813 -0.031764023
00000000: ff62 c2bb 7f30 2fbe 2737 ffbb 8a73 08be
00000010: b019 0c3d d03a bc3b f5e8 8fbd d0f7 0a3e
00000020: 08c2 133d 09c9 96bc 4a94 21bd 3b9c 36bd
00000030: 8d4d d1bd 64d5 9e3d 7790 323d 607a 0f3d
00000040: e7bc 3abd e7f4 163d e07d 0f3c 57e8 26bd
00000050: e9e2 643c 371d 48bd 8ab3 3b3d 667c 7cbc
00000060: d1a2 f5bc 732f 97bc 91df 39bd 20e2 8dbd
00000070: 98bb 043b 854b 253c 1618 8dbd 055b f6bc
00000080: e1f5 943c 23f7 79bd b786 313c 676b 86bc
00000090: a545 d9bb 987f 813d c0a5 2a3a 819e b5bd
000000a0: 35c6 013b ce85 693d e8be ad3b 92f9 483d
000000b0: c158 a6bc a02e c6bd 268d 513d 808d 60bd
000000c0: 3acf 42bc e007 5fbc e7b1 3a3d 9829 97bc
000000d0: e63d 94bb b1bd 293d 5057 ee3c c5ed f6bc
000000e0: 5043 8d3c 2a3a ad3c 65dd 1f3d 1057 2a3c
000000f0: 5763 74bd b74b 24bd 7691 1abb 25bd a8bd
00000100: db9a a03c 165a 35bc af3b aa3b befb ef3c
00000110: 9790 c13c eeda a3bd 9eb6 4b3d c523 90bc
00000120: 6cee 90bc c28a b9bb 30a9 ab3c 3e27 ac3c
00000130: d6ac 6a3d 6141 313b b931 abbb c3e3 07bd
00000140: 935e d9bc 932f c9bc 6b38 823c 35f0 65bc
00000150: 4a88 a33b 4ec1 ff3c b89e 423c d57c 65bd
00000160: f659 45bd bd62 b03d d6ed 103d 8c39 d7bc
00000170: f7ac ef3c 3c3c 01be bfa6 05bd fff5 1b3c
00000180: 67ad 1bbc fb07 603d ec47 a4bc b62c 8cbd
00000190: 4330 b6bb cee0 acbc 175c 53bd 9826 183c
000001a0: 9284 7a3d 6536 32bd c91d 583c 2807 1c3d
000001b0: c382 1cbd b3dd 343c 57ae 2b3d 350d 24bd
000001c0: 13f3 14bd 7031 6d3d 214a a3bd f36b 28bd
000001d0: 3c4e 443c 90c3 f8bc a441 ad3c af80 dbbc
000001e0: f9da 8a3c 8de3 32bc 0fab 813c 8fe8 5cbc
000001f0: dde3 ea3c 2020 273b 6ea4 cebb 2000 9c3d
00000200: 9d66 d7ba 69d4 1d3d 9cde debc 50f4 2f3c
00000210: a26a dc3c dd8a 11bd fe90 063c a857 ec3b
00000220: 4e43 873c 5738 b7bc 33d0 5e3d 2b4b 84bd
00000230: a57e 1ebd 1ec3 633c f48c 3ebd a6e7 33bd
00000240: d087 ed3b 4cd7 99ba eb7c 98bb 999f 1dbc
00000250: 498f a9bc c7a6 7d3d 38e2 f1bb aa66 09bd
00000260: 959b 003d cfea fc3c 91b7 d53c 4386 5f3c
00000270: bde4 893b 02b9 09bc 68ce a9bc d8ea 373c
00000280: 8840 ce3d 9ee1 eebc d500 ccbc 2c0e 463c
00000290: 6bf6 f33c 9a49 b9bc 0e9a c5bb fe26 a9b9
000002a0: d487 f73c 5c9d 36bc d7b7 c5bc e3f9 89bc
000002b0: d6eb 3bbd eef2 d1bc 18eb 053d f128 9fbc
000002c0: e3a3 3e3d 1155 b1bb 8d81 eebc e16e 583d
000002d0: 203d 36bd 4445 b7ba 3dd6 e6bc b13b aabc
000002e0: 927b 313c 6832 69bd 4cfd 433b 1799 c63c
000002f0: 9aaa 10bd 81d3 f4bc 7450 cdbc 0cc2 e3bc
00000300: 43cc 2b3a ffa0 0bbd 8ff9 18bc 74c6 9dbb
00000310: 9a61 803c 0b88 8b3d d01c 0ebc 04db 22bc
00000320: ed0b 3cbd 566b 11bc c39e 20bd a819 1c3c
00000330: a381 e8bc fa43 a73d 9721 78bc a8dd 8cbb
00000340: 75d9 03bd 9f79 3bbd c503 c63c 50a5 1fbd
00000350: f8fb 0bbd f4fd 20bd 7415 a73d 327c f23c
00000360: 508b 0e3d 3fcf 7c3c 9798 c23c a8e9 01bd
00000370: b4d7 99bb 289d c6bc c03f dfbc 4960 e4bc
00000380: 70a7 b73b 9890 fe3b c6ef 2bbd 6f54 49bd
00000390: 4ac5 983d 0434 6ebd 6ac3 8b3d 0efb 803c
000003a0: c8ef 98bd ec50 913d d724 57bc 2fb4 31bd
000003b0: e430 093c 4df8 77bc c9bf 593c e86b bdbc
000003c0: b444 e9bc 21d9 28bd 6ca6 d1b9 49a3 393d
000003d0: 10c7 09bd a8d7 293d a67d f43c 3b8f 95bc
000003e0: 1c01 573b f604 1a3c dfef c3b8 62b6 74bd
000003f0: 0f2f 4cbd 6298 b43a f793 45bd fe1a 02bd

decoder.0.bias f4 [64]
-0.004847408 0.012995144 0.020638322 0.029603675 -0.042351864 -0.030038767 0.0011568604 0.019601328
-0.03364625 -0.02830653 -0.026661564 0.0014790448 -0.009406913 0.026653828 0.030357007 0.004995522
0.034306385 0.035187133 -0.04434843 0.03219241 0.00957651 -0.049298607 -0.031059964 -0.04224095
-0.02587358 0.0038342832 -0.018443638 -0.02744965 -0.03376517 -0.0078117014 -0.026908832 -0.010680686
-0.022823794 -0.074378155 0.005977955 0.019441286 -0.01323185 0.0009743856 -0.038227893 -0.17017047
0.02500004 -0.011098909 -0.012810228 -0.07336586 -0.019071676 -0.052741546 -0.04290989 0.0073917466
-0.042045772 -0.04904463 -0.057532214 0.0051241904 -0.048626777 -0.05986534 0.0025519899 -0.0073382226
-0.10929862 0.044077422 0.00063831906 0.014578115 -0.017560184 0.004760455 -0.013207971 -0.011249883
00000000: 01d7 9ebb 96e9 543c b311 a93c 6883 f23c
00000010: 2679 2dbd dc13 f6bc cba1 973a f792 a03c
00000020: a6d0 09bd 19e3 e7bc 5a69 dabc 82dc c13a
00000030: 741f 1abc 2159 da3c 42af f83c 7ab1 a33b
00000040: da84 0c3d 6220 103d b3a6 35bd 30dc 033d
00000050: cbe6 1c3c 56ed 49bd 7771 febc d904 2dbd
00000060: d4f4 d3bc 9948 7b3b 1d17 97bc 17de e0bc
00000070: 594d 0abd 4df9 ffbb e96f dcbc 0bfe 2ebc
00000080: f7f8 babc 9353 98bd b9e2 c33b 5543 9f3c
00000090: 67ca 58bc e96d 7f3a da94 1cbd 2b41 2ebe
000000a0: e2cc cc3c 33d8 35bc fee1 51bc d740 96bd
000000b0: 343c 9cbc 8507 58bd 48c2 2fbd 7736 f23b
000000c0: 3038 2cbd 06e3 48bd e6a6 6bbd d3e8 a73b
000000d0: df2c 47bd 5c35 75bd 493f 273b 7975 f0bb
000000e0: f4d7 dfbd 878a 343d de54 273a 0cd9 6e3c
000000f0: 60da 8fbc 97fd 9b3b 3f66 58bc 6e51 38bc

decoder.2.weight f4 [64, 1, 4, 4]
-0.12137515 0.04552179 0.1113916 -0.11167176 -0.11633564 0.46557972 0.27441168 -0.045792773
0.05502564 0.43390688 -0.08413517 -0.21335265 0.066565335 0.16289946 0.08107527 0.025138134
0.09508852 0.041576184 0.059786387 0.11143609 0.06652222 -0.07069776 -0.014359561 0.20084104
0.20928475 0.18655406 -0.2517817 -0.055124056 0.017433895 0.12625775 -0.13876787 0.14095563
0.16437973 0.2535278 -0.1284945 -0.0065620756 -0.089558885 0.13030533 -0.1770361 -0.079385504
-0.012026778 -0.22831787 -0.07898515 -0.23906425 0.03851272 0.18117772 0.03586748 -0.034222607
0.08645452 0.07131829 -0.013637152 0.25142455 -0.08215117 0.085061856 -0.02530556 -0.1992609
-0.030131282 0.1929046 0.12956746 0.11918572 0.16142389 -0.09658919 0.12190659 0.19576038
-0.109243736 0.09938892 0.299437 0.318588 0.025254726 -0.028466012 0.2689818 0.1255233
-0.04881514 0.13077854 0.21417636 -0.03665583 -0.12385134 -0.18264103 -0.30286366 -0.24562235
-0.014017904 0.18078381 0.19299982 -0.092555076 -0.15579827 -0.20902842 0.24454606 0.4410711
-0.11135277 -0.2669518 0.009349825 0.18604454 -0.07974324 0.086191356 -0.14505492 -0.115861274
-0.18641171 0.091597416 0.14587969 -0.07544395 -0.13063364 -0.068318896 -0.06778192 0.3425154
-0.16399437 -0.010870626 -0.23121135 0.33578536 -0.07968529 0.15789093 -0.14110972 -0.02480386
-0.21411741 -0.20929532 -0.16673107 -0.14794226 0.00283913 0.23433943 0.012100095 0.11600922
0.1671527 0.15838309 0.15413854 -0.20833112 -0.03751307 0.17845625 0.14315604 0.119886525
-0.046874315 -0.19891721 -0.30142844 -0.17554356 0.03571765 -0.2626385 -0.20982295 -0.079559684
-0.08046953 -0.11034619 0.042467657 0.40474772 0.09053331 0.10932236 0.17621239 0.10099999
0.026269661 -0.08233937 0.23683406 0.12826625 -0.044783264 0.21800055 0.54529834 0.10119982
-0.09713656 0.25430977 0.22340038 -0.18299127 -0.067982756 -0.062267255 -0.115600176 0.08921194
-0.13584767 0.21685578 0.22785859 0.18261439 -0.081691906 -0.064231366 0.32496828 0.32363787
0.018068938 -0.11913739 -0.047932982 -0.026977858 -0.07169159 -0.15074009 0.16804299 0.17693809
0.08155749 -0.09440117 0.06953124 0.081730455 -0.2603568 -0.17818087 0.17320739 0.07125236
-0.21725488 -0.16472386 0.004752951 0.2388517 0.13954872 -0.1533183 -0.16082534 0.28185824
-0.05622358 -0.08065544 -0.003389404 -0.005811576 0.10960789 -0.06886969 -0.04570107 0.007897938
0.2383099 0.28533378 0.14839263 -0.23102845 -0.029623361 0.27656972 0.2550612 0.004408035
-0.14874554 0.1627335 0.10974569 0.11843674 0.19559744 -0.012714549 -0.042856153 0.23302855
-0.14135489 -0.18877843 -0.047608633 0.21766831 0.2125524 0.20368198 0.2404099 0.18960498
0.04870029 -0.015367771 0.019026672 -0.024513284 -0.12432427 -0.26566046 -0.2449647 -0.13866158
-0.18699138 -0.16641584 -0.02191316 0.06885859 0.13493654 0.3076139 0.26993456 0.2267331
-0.13478795 -0.14496005 -0.06339498 -0.11200946 -0.18779434 0.0062729176 0.23914886 0.09212201
-0.15891117 0.019640915 0.015725823 -0.19958216 0.07110693 0.109774284 -0.11835496 -0.028548162
00000000: 8993 f8bd 0e75 3a3d 4721 e43d 2ab4 e4bd
00000010: 6141 eebd 7760 ee3e b07f 8c3e 3491 3bbd
00000020: 9162 613d 0b29 de3e 0f4f acbd 1e79 5abe
00000030: 6853 883d 1ecf 263e cb0a a63d 7dee cd3c
00000040: c5bd c23d ca4b 2a3d 92e2 743d 9b38 e43d
00000050: cd3c 883d fdc9 90bd 5d44 6bbc 46a9 4d3e
00000060: be4e 563e 0708 3f3e 88e9 80be c3c9 61bd
00000070: 87d1 8e3c b649 013e 2a19 0ebe ac56 103e
00000080: 2953 283e 65ce 813e 1094 03be ae06 d7bb
00000090: a66a b7bd c36e 053e f448 35be de94 a2bd
000000a0: f70b 45bc 29cc 69be f7c2 a1bd 42cd 74be
000000b0: 84bf 1d3d a786 393e c7e9 123d 012d 0cbd
000000c0: 110f b13d 530f 923d 5c6e 5fbc b8ba 803e
000000d0: df3e a8bd e934 ae3d 9b4d cfbc 0d0b 4cbe
000000e0: e1d5 f6bc c988 453e 55ad 043e a517 f43d
000000f0: 4e4c 253e 8ed0 c5bd 2aaa f93d 6975 483e
00000100: 2ebb dfbd 6b8c cb3d ce4f 993e f71d a33e
00000110: 00e3 ce3c 8e31 e9bc fcb7 893e 2e89 003e
00000120: 62f2 47bd cfea 053e 0c51 5b3e 6c24 16bd
00000130: c5a5 fdbd 4006 3bbe f210 9bbe 6d84 7bbe
00000140: 5aab 65bc 641f 393e bfa1 453e 848d bdbd
00000150: 9589 1fbe 8c0b 56be 486a 7a3e 12d4 e13e
00000160: ec0c e4bd e8ad 88be 0230 193c 7682 3e3e
00000170: 6c50 a3bd 1885 b03d 4789 14be ad48 edbd
00000180: b6e2 3ebe 6d97 bb3d 7c61 153e 5c82 9abd
00000190: d3c4 05be c7ea 8bbd 3fd1 8abd 2e5e af3e
000001a0: 24ee 27be b61a 32bc abc2 6cbe 0fec ab3e
000001b0: 0b32 a3bd 29ae 213e 117f 10be 7731 cbbc
000001c0: 9841 5bbe 8351 56be 8dbb 2abe 2d7e 17be
000001d0: b210 3a3b adf6 6f3e 7a3f 463c 3e96 ed3d
000001e0: 142a 2b3e 2d2f 223e 7ed6 1d3e c154 55be
000001f0: 4ea7 19bd 3cbd 363e 7f97 123e 1187 f53d
00000200: 48ff 3fbd f4b0 4bbe d454 9abe b1c1 33be
00000210: ac4c 123d 8e78 86be d4db 56be 30f0 a2bd
00000220: 35cd a4bd 2ffd e1bd 91f2 2d3d 183b cf3e
00000230: 8769 b93d 67e4 df3d 0571 343e 15d9 ce3d
00000240: 7933 d73c 8ba1 a8bd a184 723e 3a58 033e
00000250: a86e 37bd 893b 5f3e ac98 0b3f da41 cf3d
00000260: 88ef c6bd e434 823e 12c3 643e 1062 3bbe
00000270: 8b3a 8bbd f30b 7fbd c9bf ecbd c0b4 b63d
00000280: a71b 0bbe 710f 5e3e c353 693e 44ff 3a3e
00000290: 164e a7bd bc8b 83bd 3e62 a63e ddb3 a53e
000002a0: 4f05 943c 4efe f3bd 6055 44bd ab00 ddbc
000002b0: 0ad3 92bd 9c5b 1abe 7613 2c3e 422f 353e
000002c0: 9d07 a73d 6755 c1bd 6566 8e3d 4c62 a73d
000002d0: 7d4d 85be 0c75 36be 475d 313e c2ec 913d
000002e0: 1078 5ebe 5fad 28be a5be 9b3b 8a95 743e
000002f0: dce5 0e3e 79ff 1cbe 66af 24be b94f 903e
00000300: b24a 66bd ae2e a5bd c320 5ebb 086f bebb
00000310: 1a7a e03d 8d0b 8dbd 0c31 3bbd 5a66 013c
00000320: 8307 743e 4517 923e 3df4 173e b992 6cbe
00000330: b1ac f2bc 8c9a 8d3e 6297 823e 4771 903b
00000340: c050 18be 9ca3 263e 59c2 e03d f68e f23d
00000350: b24a 483e af50 50bc ef89 2fbd 099f 6e3e
00000360: 56bf 10be 224f 41be 4501 43bd 71e4 5e3e
00000370: 56a7 593e 0292 503e 032e 763e cf27 423e
00000380: f579 473d 1ac9 7bbc d3dd 9b3c 15d0 c8bc
00000390: b99d febd a604 88be 07d8 7abe 4dfd 0dbe
000003a0: ab7a 3fbe ea68 2abe 3a83 b3bc bc05 8d3d
000003b0: ce2c 0a3e 927f 9d3e dd34 8a3e b92c 683e
000003c0: da05 0abe 6870 14be 3ad5 81bd 3765 e5bd
000003d0: 294d 40be 0c8d cd3b 70e3 743e 77aa bc3d
000003e0: 9cb9 22be fce5 a03c 71d3 803c 445f 4cbe
000003f0: 83a0 913d 57d1 e03d 1664 f2bd d6dd e9bc
