trained_models/checkpoint.pth.tar (torch_old, 900763 bytes, 16 tensors)

encoder.0.weight f4 [128, 784]
0.01840226 -0.01576351 -0.0069236252 0.016763177 -0.03362275 0.021418475 -0.0073473323 0.018169425
0.004964892 -0.0043730065 0.009905748 0.00176185 0.013043866 -0.013917893 -0.0026038848 -0.0032152608
0.0051765703 -0.00014267117 0.031220239 0.011113934 -0.013300223 -0.02157005 -0.0059862733 -0.015405025
-0.011444591 0.0017100573 0.021290276 0.019412026 -0.034912534 0.022140019 0.009977281 0.03387698
0.023573566 -0.032540634 -0.061611522 -0.07047526 0.0015307161 -0.103451595 -0.04883687 -0.32858852
-0.6023215 -0.57494026 -0.7994122 -1.3699307 -0.6831148 -0.59999675 -0.055087674 0.020456137
-0.010312758 -0.003915515 -0.034335293 -0.01702792 0.019379787 -0.008681331 0.035573196 0.02862816
-0.0016722716 -0.023838684 0.02174865 -0.8853477 -0.013231683 -0.00044051404 0.26139483 0.9680003
-0.44132406 0.56875104 -0.7937089 -0.53999364 -0.062044207 0.8474358 -1.1329162 0.32895428
-1.2663589 -0.29133913 -2.5505438 0.86676556 -5.8395877 0.0561411 -0.0498694 -0.06404124
-0.025111545 -0.02694675 0.002171941 -0.0060859714 0.020975858 -0.020683417 -0.031749357 -1.665184
-0.6687076 -0.047224227 -0.82166857 0.24259445 0.54738635 -0.45723337 -0.2752044 0.4500236
-0.041491892 -0.216073 -0.03194787 -0.14047436 0.0038288974 -0.08731885 -0.16492353 -0.048387896
-0.10782054 -0.41202047 0.767878 0.18097782 1.4269999 -3.1172626 0.82424843 0.026677094
0.033864807 -0.023699323 4.1727557 -0.9534576 1.8379171 0.77584976 0.14812307 -0.10915204
-0.265957 0.21206722 0.038928505 -0.058968168 0.055410504 0.02518172 -0.06561812 -0.02742359
0.06828644 -0.09624295 -0.021047985 0.05740486 -0.026801677 0.0071223145 0.15117663 -0.3849396
-0.31437123 1.4285057 -0.8543855 -0.029991377 -0.016365021 -0.0041587837 -0.032633502 -0.12809421
0.11263486 -0.23830779 -0.23570871 0.22243321 0.13247411 -0.18313186 0.1623193 -0.039894868
-0.05750109 0.18052663 -0.00033174752 0.11766677 0.018002316 -0.015723925 0.15470378 0.049805667
0.022522943 0.01419379 -0.07412275 0.37202033 0.20079294 -0.086723804 -2.1002705 0.51049894
-0.028461372 -0.04409794 0.2946363 0.37891242 -0.6550561 0.32773298 0.13592614 -0.066651545
0.11248418 0.03688561 0.11143296 -0.009929564 0.14902627 0.0028228138 0.02765013 -0.016970163
0.04003383 0.08160429 -0.03324568 -0.0916631 -0.04274121 -0.010536118 0.18407442 -0.21282926
-0.12665117 -0.66038865 -0.75689054 1.0491214 0.020739278 0.63860905 0.44194287 0.04687568
0.28733805 -0.2963062 0.053424906 0.013859806 0.013971411 0.08576236 -0.098510526 0.2306031
-0.07455293 0.1478604 0.066372275 0.031835943 -0.17993401 0.16923544 -0.103162594 0.13363265
-0.08925293 0.018040279 -0.05776517 -0.10557843 0.12847503 -0.31514254 -1.8784719 1.237278
0.027360786 0.25858948 -0.6180325 -0.16853061 -0.0265392 0.19687448 0.0026051844 -0.03753217
0.006778936 0.12618083 0.071392685 0.009790854 0.00069592515 0.14691849 0.0070757587 0.012943452
-0.076279946 -0.0017593442 0.031388298 -0.13309057 0.07052739 -0.003133893 0.17727381 -0.0131602185
0.07235701 -0.021672186 -1.4846706 -0.039920554 -0.70017445 0.18088497 0.195947 0.3547456
00000000: 56c0 963c 7a22 81bc 94df e2bb ee52 893c
00000010: 02b8 09bd cc75 af3c e4c1 f0bb 0cd8 943c
00000020: 88b0 a23b 704b 8fbb b84b 223c e0ed e63a
00000030: f0b5 553c e007 64bc f0a5 2abb 20b7 52bb
00000040: 38a0 a93b 009a 15b9 96c1 ff3c 3817 363c
00000050: 2ee9 59bc acb3 b0bc 8028 c4bb 5c65 7cbc
00000060: 1882 3bbc 0024 e03a f268 ae3c f805 9f3c
00000070: 7200 0fbd fc5e b53c c077 233c 97c2 0a3d
00000080: 5a1d c13c 5449 05bd 5d5c 7cbd 5555 90bd
00000090: 4fa2 c83a 6ede d3bd 2b09 48bd c13c a8be
000000a0: be31 1abf 492f 13bf 47a6 4cbf e459 afbf
000000b0: 9de0 2ebf 6399 19bf 9da3 61bd a193 a73c
000000c0: d8f6 28bc b84d 80bb 2aa3 0cbd 237e 8bbc
000000d0: 5cc2 9e3c 243c 0ebc 33b5 113d 9a85 ea3c
000000e0: 2030 dbba 5849 c3bc 3a2a b23c 26a6 62bf
000000f0: b3c9 58bc cbf4 e6b9 8bd5 853e dece 773f
00000100: 3af5 e1be ab99 113f 8230 4bbf 063d 0abf
00000110: 1122 7ebd 8df1 583f 6603 91bf b26c a83e
00000120: 0c18 a2bf 672a 95be 1c3c 23c0 59e4 5d3f
00000130: e7dd bac0 36f4 653d db43 4cbd 0e28 83bd
00000140: bab6 cdbc 6ebf dcbc 2057 0e3b d46c c7bb
00000150: 90d5 ab3c 4570 a9bc 9d0b 02bd c024 d5bf
00000160: 6c30 2bbf 316e 41bd df58 52bf ae6a 783e
00000170: 8321 0c3f 7e1a eabe 97e7 8cbe 7e69 e63e
00000180: 67f3 29bd 3e42 5dbe c5db 02bd 83d8 0fbe
00000190: 3dee 7a3b 3ad4 b2bd b7e1 28be 6332 46bd
000001a0: 04d1 dcbd 59f4 d2be a793 443f 4052 393e
000001b0: efa7 b63f 3b81 47c0 f201 533f ec89 da3c
000001c0: d3b5 0a3d 1525 c2bc 3787 8540 cc15 74bf
000001d0: de40 eb3f 179e 463f 93ad 173e 1b8b dfbd
000001e0: 842b 88be 2628 593e 7f73 1f3d 9b88 71bd
000001f0: 20f6 623d e549 ce3c cb62 86bd 70a7 e0bc
00000200: c3d9 8b3d 061b c5bd d36c acbc 5c21 6b3d
00000210: 318f dbbc 4e62 e93b 0cce 1a3e ce16 c5be
00000220: 44f5 a0be 46d9 b63f 02b9 5abf 7ab0 f5bc
00000230: f00f 86bc 6846 88bb b5aa 05bd 212b 03be
00000240: 1bad e63d f506 74be a05d 71be 88c5 633e
00000250: 4ba7 073e eb86 3bbe 0837 263e cd68 23bd
00000260: 4386 6bbd f9db 383e 66ee adb9 47fb f03d
00000270: 9879 933c 76cf 80bc ab6a 1e3e 0701 4c3d
00000280: 0982 b83c 128d 683c abcd 97bd 7379 be3e
00000290: aa9c 4d3e 409c b1bd d56a 06c0 0fb0 023f
000002a0: d327 e9bc 0ba0 34bd 92da 963e cf00 c23e
000002b0: c2b1 27bf 9ecc a73e 3930 0b3e 9b80 88bd
000002c0: 1b5e e63d 5e15 173d f736 e43d 9caf 22bc
000002d0: 589a 183e f5fe 383b 8782 e23c 0305 8bbc
000002e0: 83fa 233d 2620 a73d 9f2c 08bd ddb9 bbbd
000002f0: 6811 2fbd af9f 2cbc 017e 3c3e eaef 59be
00000300: d8b0 01be 3b0f 29bf 94c3 41bf 9c49 863f
00000310: 6be5 a93c e27b 233f 5646 e23e b700 403d
00000320: f91d 933e 72b5 97be 13d4 5a3d 3d14 633c
00000330: 58e8 643c 2da4 af3d e3bf c9bd 3823 6c3e
00000340: 35af 98bd b768 173e 30ee 873d 6866 023d
00000350: 9f40 38be 0e4c 2d3e e946 d3bd ffd6 083e
00000360: 3dca b6bd 35c9 933c 2c9b 6cbd 8139 d8bd
00000370: f58e 033e 5d5a a1be c471 f0bf 205f 9e3f
00000380: ba23 e03c d765 843e 6137 1ebf 4a93 2cbe
00000390: bd68 d9bc 7799 493e bebb 2a3b 55bb 19bd
000003a0: d621 de3b 8c35 013e 5436 923d d169 203c
000003b0: bf6e 363a cd71 163e c4db e73b c610 543c
000003c0: a938 9cbd cc99 e6ba 0491 003d e548 08be
000003d0: aa70 903d 0062 4dbb 4487 353e f59d 57bc
000003e0: e92f 943d de89 b1bc b009 bebf bc83 23bd
000003f0: a23e 33bf e939 393e 55a6 483e 37a1 b53e

encoder.0.bias f4 [128]
3.515211 -0.0029435167 1.7680013 2.0820487 0.22757304 1.95734 3.1983619 2.411087
2.6882603 0.018661246 2.3705754 1.8650879 1.6725119 2.9190528 2.3907597 0.9761274
0.2030054 -0.20025018 -0.13918497 2.729024 0.977949 0.35342816 1.7553436 1.0078853
2.009647 1.3487506 2.583324 0.2720185 0.055306908 -0.14340238 3.088705 -0.0077292346
2.1482708 1.608917 1.969268 -0.0028172538 2.0074224 -0.024669206 -0.015238022 1.2145153
0.010236324 2.3596802 2.6579304 2.621141 2.760411 0.006289806 0.0016739852 -0.36052132
2.8316903 0.83398926 2.0913012 1.7220728 2.065954 2.1144028 -0.038019348 0.0030857646
3.1358745 -0.014873486 1.2734715 2.0258603 1.3030723 2.2358599 1.944818 -0.04085479
1.589358 0.005876711 2.545526 0.3716619 -0.31989974 1.9270269 -0.042067382 1.9144324
-0.04410307 2.1946533 1.710182 0.005186757 0.8533144 2.8683767 -0.02127135 3.4321408
3.2777817 2.2135472 1.8474798 2.2577136 2.3197412 -0.0026177547 0.67009497 0.5524704
2.2172883 0.0056038275 2.3936954 2.5192163 0.016877722 -0.03572459 3.3286903 0.92806125
0.0018541474 3.260798 1.3256925 0.007945545 0.45297807 -0.03838248 0.5647439 2.1656966
0.113652445 2.701359 -0.017080523 0.20826817 1.9473808 0.83945394 -0.03345619 1.4769052
0.7389599 2.4776087 -0.029426264 2.2640407 0.15793326 2.0745494 0.5553025 1.2929941
1.7845191 3.0427392 0.019881858 1.8842698 -0.021074694 1.8872683 -0.0059927506 -0.011664843
00000000: 38f9 6040 04e8 40bb de4d e23f 4940 0540
00000010: e808 693e 1e8a fa3f f6b1 4c40 404f 1a40
00000020: 750c 2c40 78df 983c 82b7 1740 33bb ee3f
00000030: df14 d63f c3d1 3a40 3502 1940 7ce3 793f
00000040: a6e0 4f3e 620e 4dbe 8186 0ebe 54a8 2e40
00000050: de5a 7a3f 89f4 b43e 19af e03f 6302 813f
00000060: 0e9e 0040 dca3 ac3f 2e55 2540 0246 8b3e
00000070: 7f89 623d 13d8 12be 58ad 4540 8545 fdbb
00000080: 457d 0940 fef0 cd3f f910 fc3f ada1 38bb
00000090: 9c79 0040 1317 cabc e6a8 79bc 3d75 9b3f
000000a0: 41b6 273c 0005 1740 881b 2a40 c6c0 2740
000000b0: 93aa 3040 b81a ce3b 9f69 db3a 4096 b8be
000000c0: 6a3a 3540 5280 553f e1d7 0540 e26c dc3f
000000d0: 9738 0440 6052 0740 2dba 1bbd 8a3a 4a3b
000000e0: 2bb2 4840 ecaf 73bc 1d01 a33f b2a7 0140
000000f0: 13cb a63f 5418 0f40 ccef f83f 5a57 27bd
00000100: 1570 cb3f 6d91 c03b e6e9 2240 784a be3e
00000110: e6c9 a3be d1a8 f63f d94e 2cbd 1f0c f53f
00000120: 6ca5 34bd 3375 0c40 3ee7 da3f acf5 a93b
00000130: d072 5a3f 7c93 3740 4141 aebc 32a8 5b40
00000140: 2dc7 5140 c2aa 0d40 387a ec3f 617e 1040
00000150: a476 1440 a38e 2bbb 588b 2b3f b36e 0d3f
00000160: 0de8 0d40 50a0 b73b 4e32 1940 d73a 2140
00000170: 2643 8a3c f353 12bd 4309 5540 6c95 6d3f
00000180: dd06 f33a eab0 5040 4bb0 a93f 082e 023c
00000190: beec e73e f336 1dbd 0e93 103f c69a 0a40
000001a0: 9dc2 e83d 11e3 2c40 74ec 8bbc 4044 553e
000001b0: c643 f93f 74e6 563f 5c09 09bd 3b0b bd3f
000001c0: 7a2c 3d3f 2491 1e40 590f f1bc 0be6 1040
000001d0: 42b9 213e 6bc5 0440 4e28 0e3f d580 a53f
000001e0: 1f6b e43f 3dbc 4240 47df a23c c12f f13f
000001f0: d6a4 acbc 0292 f13f d65e c4bb e61d 3fbc

encoder.2.weight f4 [64, 128]
0.03697662 0.04753817 0.14539063 0.36937177 -0.06447458 0.20164908 0.07761742 0.14202733
-0.0070486423 -0.044198688 -0.033288326 -0.038308654 0.0032263147 -0.16253652 0.057592127 0.073680736
0.20367146 -0.022663774 -0.078724116 0.22668363 0.006261256 -0.016179355 0.020555295 0.066416055
0.23729916 0.25686434 -0.3214197 0.03077673 0.049814288 -0.012256417 0.05185833 -0.040801186
-0.0002386328 0.20091514 0.13451049 -0.024147457 0.23890765 -0.06088874 0.084066615 0.017905774
-0.025758943 0.08278863 -0.13991137 0.15124485 0.16736667 -0.054235682 0.022293374 0.18413451
-0.027120236 -0.08971813 -0.16177264 -0.0042524724 0.090568095 -0.06871216 -0.07389475 0.020106092
-0.023605855 -0.051979337 0.067165904 -0.037357252 0.069937676 -0.014266171 0.07959706 -0.06949114
-0.021160007 0.07233469 0.21965784 -0.0009920539 0.007994925 0.0046583223 0.059024252 0.16887774
0.060679812 -0.054693855 0.015985692 -0.028626446 0.027858619 0.19755279 0.08957375 -0.049904507
0.0059954384 0.019021694 0.10385401 -0.15357262 -0.045354974 -0.027588205 -0.01180774 -0.0040865885
-0.0062527987 0.07653944 0.11251582 0.004508788 -0.025047584 -0.029772317 0.14432089 -0.115426056
0.03939598 -0.01677035 -0.039862562 0.08235551 0.1736797 -0.06651759 -0.043169644 0.23408014
-0.12050873 0.5775929 -0.001717412 -0.0040525575 0.3036118 0.08519185 0.0023963137 0.057284463
-0.02642383 -0.017237088 0.010018423 0.25261104 0.08247345 0.020987619 -0.021136785 0.025714155
0.04994059 -0.019558933 -0.03461613 0.09459757 0.04865719 0.07379081 0.021620205 -0.08231152
0.08542839 -0.060386952 0.05501156 -0.03346164 -0.04486296 -0.06650873 0.039178442 -0.007983078
-0.007086952 -0.0021404934 -0.043321326 0.042416863 -0.0118193 0.07349283 0.038908754 0.015126715
-0.100678355 0.044707354 -0.09731686 -0.07725416 0.058269776 -0.042196304 0.014669466 -0.06509881
-0.08013377 -0.009320528 0.03383885 -0.06721134 -0.07952339 -0.018937668 -0.101028465 0.04903913
-0.0028851717 -0.06322238 -0.0026776358 -0.087244116 -0.076648526 -0.044446368 -0.039714135 0.014409869
0.076359436 -0.05611418 -0.07543269 -0.048721865 -0.06827936 0.0628577 -0.009137391 -0.0522931
0.074790105 -0.059125338 -0.091410376 0.0094934935 -0.0024892306 0.02167808 0.023613436 0.037631154
-0.008342079 0.028971938 0.026309747 -0.07835072 -0.07792962 -0.08618683 -0.012091055 -0.07607884
-0.0684181 0.041438516 0.012601813 -0.03745013 -0.07754632 -0.04507663 0.055335272 -0.03601002
0.028127197 0.052355204 -0.026588215 0.044693343 -0.060138952 0.033663157 0.068615146 -0.0671534
0.03498103 -0.05809993 0.036548033 -0.08265019 -0.07166782 -0.002696509 0.0024159874 -0.10026388
0.0109391045 -0.07906349 -0.05497913 -0.10689119 0.062482517 -0.063520215 0.014106109 -0.079863444
-0.07063633 0.041077156 0.026789596 -0.026924746 -0.04574636 0.005315895 -0.08152332 -0.044645377
0.01619475 0.015067588 0.009663549 -0.022481248 -0.071275815 0.0106264865 0.065726504 -0.034085102
0.05110398 0.021354761 0.060185358 -0.078501895 -0.029885458 0.06168534 0.051233705 0.00018499696
0.0015874269 0.053306352 -0.024292663 0.02368646 0.00017565378 -0.10101283 -0.013147899 0.04351204
00000000: cc74 173d 62b7 423d 48e1 143e 4c1e bd3e
00000010: 400b 84bd 197d 4e3e e2f5 9e3d 9d6f 113e
00000020: 4cf8 e6bb af09 35bd 5759 08bd 89e9 1cbd
00000030: 9470 533b f96f 26be b9e5 6b3d ede5 963d
00000040: 408f 503e 61a9 b9bc 1c3a a1bd c11f 683e
00000050: 392b cd3b 918a 84bc 9463 a83c 2405 883d
00000060: 8dfe 723e b983 833e 1f91 a4be 7b1f fc3c
00000070: 110a 4c3d 24cf 48bc 6669 543d 251f 27bd
00000080: 8139 7ab9 b3bc 4d3e 1ebd 093e e3d0 c5bc
00000090: 35a4 743e 7966 79bd 1e2b ac3d 21af 923c
000000a0: 6b04 d3bc 168d a93d ed44 0fbe eedf 1a3e
000000b0: 2b62 2b3e 3c26 5ebd 98a0 b63c c28d 3c3e
000000c0: 422b debc 24be b7bd baa7 25be 5358 8bbb
000000d0: c47b b93d f6b8 8cbd 2156 97bd 88b5 a43c
000000e0: 1161 c1bc 49e8 54bd 478e 893d eb03 19bd
000000f0: 7c3b 8f3d a8bc 69bc c903 a33d 5f51 8ebd
00000100: c057 adbc 3624 943d fced 603e ce07 82ba
00000110: 25fd 023c d7a4 983b 6ac3 713d 49ee 2c3e
00000120: 658b 783d aa06 60bd 6df4 823c 0282 eabc
00000130: c237 e43c 474b 4a3e 7172 b73d ab68 4cbd
00000140: 6275 c43b 62d3 9b3c 69b1 d43d 2442 1dbe
00000150: 23c6 39bd a900 e2bc 4075 41bc cae8 85bb
00000160: 47e4 ccbb b6c0 9c3d b26e e63d 75be 933b
00000170: 9730 cdbc 13e5 f3bc dbc8 133e 7f64 ecbd
00000180: ae5d 213d f961 89bc ed46 23bd 01aa a83d
00000190: 17d9 313e 603a 88bd a7d2 30bd b4b2 6f3e
000001a0: 48cd f6bd 21dd 133f c91a e1ba 51cb 84bb
000001b0: 0173 9b3e 1179 ae3d 790b 1d3b 1da3 6a3d
000001c0: ca76 d8bc cb34 8dbc 5024 243c 3c56 813e
000001d0: d7e7 a83d 3aee ab3c 0d27 adbc 7ea6 d23c
000001e0: 818e 4c3d 0e3a a0bc a5c9 0dbd 5fbc c13d
000001f0: c34c 473d a31f 973d db1c b13c f192 a8bd
00000200: 14f5 ae3d 4f58 77bd cd53 613d 130f 09bd
00000210: 39c2 37bd bb35 88bd 9379 203d 75cb 02bc
00000220: aa39 e8bb 8547 0cbb b471 31bd 4ebd 2d3d
00000230: bda5 41bc 6983 963d c95e 1f3d 0bd6 773c
00000240: 7430 cebd 0f1f 373d 104e c7bd 6e37 9ebd
00000250: 4aac 6e3d 08d6 2cbd 3358 703c 8652 85bd
00000260: 2d1d a4bd 21b5 18bc 9b9a 0a3d 19a6 89bd
00000270: 29dd a2bd 2b23 9bbc 03e8 cebd 41dd 483d
00000280: 2615 3dbb bc7a 81bd 467b 2fbb 0bad b2bd
00000290: e7f9 9cbd 650d 36bd 4aab 22bd 5f17 6c3c
000002a0: 5662 9c3d fbd7 65bd 747c 9abd 9490 47bd
000002b0: 0dd6 8bbd 8abb 803d ffb4 15bc 4a31 56bd
000002c0: 8e2b 993d 692d 72bd 5d35 bbbd 998a 1b3c
000002d0: 5c22 23bb 3b96 b13c f770 c13c 2023 1a3d
000002e0: 37ad 08bc 8f56 ed3c 8a87 d73c 5876 a0bd
000002f0: 9199 9fbd b982 b0bd 8f19 46bc 39cf 9bbd
00000300: ca1e 8cbd 6fbb 293d d677 4e3c 4f65 19bd
00000310: 9bd0 9ebd 46a2 38bd 3da7 623d 3e7f 13bd
00000320: 026b e63c 6972 563d 87cf d9bc 5e10 373d
00000330: 4354 76bd 61e2 093d 1986 8c3d b987 89bd
00000340: 4548 0f3d 31fa 6dbd 64b3 153d 8144 a9bd
00000350: 94c6 92bd eab7 30bb 8b55 1e3b 2657 cdbd
00000360: ee39 333c 0aec a1bd cc31 61bd c5e9 dabd
00000370: abed 7f3d e316 82bd 4f1d 673c 728f a3bd
00000380: c8a9 90bd 8540 283d db75 db3c 4991 dcbc
00000390: 8960 3bbd f630 ae3b b3f5 a6bd 12de 36bd
000003a0: daaa 843c 0bde 763c dd53 1e3c 982a b8bc
000003b0: 0ef9 91bd b71a 2e3c 9e9b 863d d29c 0bbd
000003c0: 6852 513d 2ef0 ae3c ec84 763d 9ac5 a0bd
000003d0: 59d2 f4bc c4a9 7c3d 6fda 513d befb 4139
000003e0: 3511 d03a c357 5a3d 6801 c7bc 1b0a c23c
000003f0: b42f 3839 d1df cebd 496a 57bc ae39 323d

encoder.2.bias f4 [64]
0.22683682 -0.040229596 0.03160341 0.6508276 0.060179725 -0.043370266 0.1790277 0.03480614
0.20185344 0.6160521 -0.089567274 -0.07905647 -0.03390931 0.44088277 0.0020530343 0.727938
0.12630486 0.17049307 0.26240742 0.9668581 0.15282743 -0.08057372 0.04206107 0.07568708
0.8558474 0.62904394 0.011531373 0.018297983 0.19051138 0.3003093 0.70022106 -0.29630774
0.05051704 0.6610708 0.18875086 -0.086352 0.030610574 0.018356709 0.44482622 0.64963806
-0.101252474 0.9328328 -0.11505604 0.8384319 1.4953985 0.23174854 0.40414944 -0.055894934
0.98011154 0.54362184 0.1549601 -0.04137815 0.11490993 0.17382666 -0.082404405 0.25539386
0.3014108 0.44157603 0.043111123 0.15201141 0.20890197 -0.06711292 0.34226015 0.29861897
00000000: e947 683e cac7 24bd 9472 013d a39c 263f
00000010: 047f 763d 05a5 31bd 0a53 373e e290 0e3d
00000020: abb2 4e3e 97b5 1d3f 0c6f b7bd 5ce8 a1bd
00000030: 7de4 0abd 63bb e13e 338c 063b 255a 3a3f
00000040: 1056 013e bc95 2e3e 445a 863e 0384 773f
00000050: cb7e 1c3e d603 a5bd 3b48 2c3d d401 9b3d
00000060: d118 5b3f 0609 213f 15ee 3c3c a7e5 953c
00000070: 6a15 433e 24c2 993e b041 333f a6b5 97be
00000080: f5ea 4e3d f03b 293f e847 413e 51d9 b0bd
00000090: 07c3 fa3c cf60 963c 43c0 e33e ae4e 263f
000000a0: 755d cfbd 21ce 6e3f 80a2 ebbd 79a3 563f
000000b0: 3869 bf3f 7d4f 6d3e adec ce3e 16f2 64bd
000000c0: 97e8 7a3f cd2a 0b3f dcad 1e3e 237c 29bd
000000d0: e655 eb3d 9eff 313e a4c3 a8bd fcc2 823e
000000e0: 8452 9a3e 4116 e23e 4a95 303d e1a8 1b3e
000000f0: 66ea 553e 8072 89bd b93c af3e 96e4 983e

encoder.4.weight f4 [32, 64]
0.01648922 0.049862783 -0.08397433 -0.018598244 0.013066294 0.025668599 0.029136127 -0.039248854
0.045628726 -0.10473567 0.06020344 0.028475488 0.012111062 -0.13149928 0.096499845 0.0459849
-0.018400008 -0.11271797 -0.1311148 -0.1733448 -0.13636972 0.055535518 0.09651811 -0.15958449
-0.07360794 -0.07704313 -0.0124907745 -0.024626203 -0.14799868 -0.0031592872 -0.08980944 -0.12799837
-0.02586137 -0.05305985 -0.030849304 -0.07531682 0.06157893 0.1063922 -0.13784395 0.0722738
0.040609624 0.03549389 0.009835409 -0.028556978 0.10708257 -0.06899568 0.017584067 -0.07920562
-0.16316411 0.019588308 -0.045213036 0.008080432 0.053157546 0.025884798 0.09268205 0.09293762
0.0013360814 0.064748734 -0.03518339 0.01821145 -0.008905816 0.06792207 -0.12817371 -0.13904127
0.12822849 0.06263492 -0.024850892 0.011885814 0.0030389433 -0.10307138 0.020020587 0.08119004
-0.08603518 0.010282856 0.041439872 -0.032007907 0.056839224 -0.022941463 0.02082853 0.098335914
-0.07990589 0.11357354 0.02163448 0.061986547 0.0090099545 0.09173024 0.068795115 0.024634764
0.31910247 0.08205619 0.09225455 -0.021346442 -0.059159182 -0.07881839 -0.067405194 -0.06783127
-0.042748537 -0.06626453 -0.030729724 -0.14732417 0.04283017 0.09939142 -0.10276588 0.016249318
0.1008523 0.16505623 -0.06657355 0.076344386 -0.11445601 0.08974439 -0.028112289 -0.01828508
0.05354502 0.006301291 -0.089347914 0.091971785 0.012358029 0.09058388 0.019916259 0.029161653
0.022809686 0.026854474 0.015549845 0.11713989 0.09098338 -0.020785753 0.07044351 0.18252608
-0.08679144 -0.0828244 -0.09525166 0.07522781 -0.106091745 0.059977032 0.10663459 -1.11974705e-05
0.052782983 0.0360691 -0.041747194 0.04735962 -0.00075385906 0.06628902 -0.06002002 -0.058987882
-0.0130758025 -0.12081387 -0.04749669 0.029389195 0.06487123 -0.023365092 -0.03982896 0.016686581
0.2850356 0.158967 -0.033519037 0.031197703 0.033632036 -0.06709024 -0.1412752 -0.100800574
-0.07658489 0.1410469 -0.051763147 0.05353839 -0.11151342 -0.08662294 0.054128535 -0.0052693137
0.036825556 0.14858875 0.0677045 0.20093574 0.09948927 0.0494509 0.02249643 -0.08987386
-0.10699417 0.12122858 -0.04686426 -0.13654138 -0.00092443964 0.153839 0.0035915566 -0.16280058
0.09983725 -0.034365453 -0.08861475 0.11594733 -0.09779847 -0.059819322 -0.06013581 0.16923669
0.08067557 -0.12933785 -0.079187155 -0.10826778 0.110686354 0.12350508 0.06268999 -0.123964615
-0.0790017 -0.016527275 0.004553204 -0.034078036 0.113332435 0.064173624 0.00013944616 -0.07990751
-0.11642851 0.024400389 -0.13811022 0.01674532 -0.042893823 0.10907482 0.062044993 -0.00031244406
-0.10756887 0.055492785 -0.09968977 -0.087108426 0.06379541 -0.0034987628 0.020495206 0.019442672
0.049021516 0.109334715 0.02556254 -0.0718439 0.10923413 0.036936093 0.054255124 -0.095509574
-0.032485176 0.04077565 0.083002344 -0.005400904 0.017837571 -0.12609065 0.079689875 -0.11435634
0.08804318 0.11296581 0.024782306 -0.059768233 0.07976821 -0.020174015 -0.06356171 -0.09885107
-0.118695185 -0.04122266 -0.10120203 -0.123640284 -0.095002204 0.055095647 -0.06395733 -0.10668727
00000000: 6714 873c eb3c 4c3d bcfa abbd 585b 98bc
00000010: 0214 563c f446 d23c e3ae ee3c 68c3 20bd
00000020: 30e5 3a3d a87f d6bd e297 763d 6d45 e93c
00000030: 7a6d 463c bfa7 06be b6a1 c53d aa5a 3c3d
00000040: 9dbb 96bc aed8 e6bd f542 06be 4d81 31be
00000050: 81a4 0bbe 3679 633d 49ab c53d 1e6a 23be
00000060: c2bf 96bd cac8 9dbd 1ba6 4cbc e4bc c9bc
00000070: f78c 17be 0b0c 4fbb 03ee b7bd 0112 03be
00000080: 39db d3bc 4955 59bd aeb7 fcbc b43f 9abd
00000090: 303a 7c3d 27e4 d93d f726 0dbe 4904 943d
000000a0: 4756 263d 0b62 113d b224 213c 53f0 e9bc
000000b0: 1b4e db3d 9b4d 8dbd 760c 903c 8e36 a2bd
000000c0: 7e14 27be a977 a03c 4e31 39bd ca63 043c
000000d0: babb 593d 5b0c d43c 16d0 bd3d 1456 be3d
000000e0: 741f af3a fc9a 843d 751c 10bd 2e30 953c
000000f0: b3e9 11bc ba1a 8b3d f83f 03be d660 0ebe
00000100: 544e 033e bd46 803d 1994 cbbc b8bc 423c
00000110: 0229 473b 1617 d3bd 3702 a43c f746 a63d
00000120: 3633 b0bd 6d79 283c dbbc 293d b91a 03bd
00000130: 3fd0 683d bcef bbbc 98a0 aa3c 5764 c93d
00000140: b3a5 a3bd 3e99 e83d cb3a b13c 9be5 7d3d
00000150: 7d9e 133c 10dd bb3d 74e4 8c3d d8ce c93c
00000160: 6661 a33e 130d a83d f4ef bc3d bcde aebc
00000170: e650 72bd 896b a1bd bc0b 8abd 1feb 8abd
00000180: 1719 2fbd b3b5 87bd e7bc fbbc 26dc 16be
00000190: b06e 2f3d bb8d cb3d eb76 d2bd 4a1d 853c
000001a0: a78b ce3d 8004 293e b757 88bd 725a 9c3d
000001b0: ea67 eabd e8cb b73d be4b e6bc 98ca 95bc
000001c0: 0652 5b3d 0f7b ce3b 0afc b6bd b45b bc3d
000001d0: 5579 4a3c 0b84 b93d 6c27 a33c 6be4 ee3c
000001e0: 61db ba3c eafd db3c c7c4 7e3c 0ae7 ef3d
000001f0: 7f55 ba3d e246 aabc b044 903d 1ee8 3a3e
00000200: b6bf b1bd d79f a9bd 4d13 c3bd 0a11 9a3d
00000210: a146 d9bd 7aaa 753d 3c63 da3d c5dc 3bb7
00000220: f832 583d 31bd 133d 1bff 2abd 29fc 413d
00000230: a09e 45ba 8ac2 873d 8dd7 75bd 479d 71bd
00000240: e43b 56bc 436d f7bd e48b 42bd 9cc1 f03c
00000250: 35db 843d 2668 bfbc b123 23bd 4cb2 883c
00000260: 30f0 913e 3fc8 223e 424b 09bd 5392 ff3c
00000270: bfc1 093d 9c66 89bd 72aa 10be 8870 cebd
00000280: 8ad8 9cbd 996e 103e 9805 54bd 124b 5b3d
00000290: 2661 e4bd 5e67 b1bd e2b5 5d3d 35aa acbb
000002a0: 65d6 163d a627 183e a8a8 8a3d 19c2 4d3e
000002b0: 08c1 cb3d 078d 4a3d 6f4a b83c c90f b8bd
000002c0: c21f dbbd b146 f83d bdf4 3fbd 81d1 0bbe
000002d0: 1856 72ba f987 1d3e 5260 6b3b 32b5 26be
000002e0: 7977 cc3d cac2 0cbd a67b b5bd cb75 ed3d
000002f0: 904a c8bd 1b05 75bd f850 76bd 624c 2d3e
00000300: 3c39 a53d 2471 04be e02c a2bd 7fbb ddbd
00000310: 87af e23d 3bf0 fc3d 9c63 803d 29e1 fdbd
00000320: a5cb a1bd 3564 87bc 0b33 953b 6995 0bbd
00000330: d61a e83d 766d 833d 4b38 1239 8ca6 a3bd
00000340: 1272 eebd 53e3 c73c c46c 0dbe 7b2d 893c
00000350: 6fb1 2fbd 9f62 df3d e422 7e3d 88cf a3b9
00000360: 114d dcbd 674c 633d 262a ccbd e765 b2bd
00000370: 2ba7 823d 804b 65bb 90e5 a73c 3d46 9f3c
00000380: c9ca 483d e1ea df3d 8868 d13c e522 93bd
00000390: 25b6 df3d 4d4a 173d 9f3a 5e3d 869a c3bd
000003a0: 2d0f 05bd 5e04 273d 22fd a93d 11fa b0bb
000003b0: 1920 923c e81d 01be 7234 a33d a833 eabd
000003c0: fc4f b43d 9e5a e73d 4304 cb3c 89cf 74bd
000003d0: 845d a33d fa43 a5bc a42c 82bd 6e72 cabd
000003e0: 7616 f3bd 18d9 28bd 0343 cfbd 1e37 fdbd
000003f0: 8490 c2bd f9ab 613d 10fc 82bd db7e dabd

encoder.4.bias f4 [32]
0.06465078 0.035869315 0.31457767 0.05662473 0.3622811 0.023725154 0.18782558 0.22499077
0.2834631 0.15649225 0.19136229 0.25583294 -0.08894593 0.67007494 0.053608276 0.1855565
-0.041365124 -0.15039802 -0.05552513 -0.11664461 0.24400999 -0.064849496 0.5047364 0.099620536
0.031878233 0.27065444 0.20576805 -0.11546472 0.006091434 -0.12578946 0.4154814 0.07743679
00000000: a167 843d b4eb 123d 5310 a13e 55ef 673d
00000010: e97c b93e 415b c23c 5955 403e fb63 663e
00000020: 1322 913e 813f 203e 7af4 433e 89fc 823e
00000030: 4929 b6bd 088a 2b3f 5a94 5b3d 8602 3e3e
00000040: 7a6e 29bd f001 1abe 526e 63bd 5fe3 eebd
00000050: c1dd 793e d0cf 84bd 6836 013f da05 cc3d
00000060: c092 023d 3893 8a3e dcb4 523e c478 ecbd
00000070: a79a c73b f4ce 00be fab9 d43e 2e97 9e3d

encoder.6.weight f4 [32, 32]
-0.17486095 -0.18769403 0.09849763 0.09821853 0.0078536365 0.16676761 -0.09146035 0.088875905
0.100759186 -0.014295283 -0.22612748 -0.042901766 -0.08506482 0.10559076 -0.13608655 0.072250746
-0.19613066 -0.17588352 0.10941477 0.10838487 -0.20548995 -0.055806704 0.029764809 -0.009322751
-0.12649369 -0.19537383 -0.21780224 0.12590379 0.08292826 -0.09622332 -0.16571113 -0.11998539
-0.14647715 -0.36983386 -0.51719016 -0.05144441 -0.08717705 0.07967553 0.33172905 -0.027200956
-0.0634213 -0.13262515 -0.31736842 -0.48237 0.05060941 0.33494434 -0.028294468 -0.14909093
0.38930047 -0.056253683 -0.1473004 -0.009915367 -0.25136366 0.04550221 0.09375053 -0.14669363
0.13582402 0.19184448 0.3284378 -0.047332138 0.22938289 -0.09678107 -0.15883818 0.38363835
-0.12315106 -0.16390486 0.16962108 0.00038166862 -0.01998106 0.17591359 -0.052785642 -0.03003344
-0.1914006 0.17274521 0.03133965 0.03303302 -0.11497296 0.06875685 -0.086486064 0.10154847
0.12191283 -0.019324536 0.19889684 0.12486495 0.031692605 0.028779535 0.06612584 -0.039210044
0.13523428 -0.17997119 0.089797825 -0.15624365 0.21455923 -0.116375044 -0.07841679 -0.12116871
0.08929218 -0.002613301 0.024029179 0.14355037 -0.13218224 -0.06467615 -0.19397509 0.042558037
-0.027028207 -0.19113766 0.16763034 0.12560995 -0.036999978 0.016161598 -0.057749208 0.18624437
0.15956733 -0.12309932 -0.114165075 0.028136475 0.06714887 -0.07544438 0.21420905 -0.12939058
0.026882935 0.045303818 0.061002478 0.031464774 0.28734985 -0.07148394 0.20993455 -0.08284299
0.028387666 0.18959601 -0.14090465 -0.09442937 -0.1554343 -0.18239106 0.150795 -0.044041824
-0.17649189 0.09003323 -0.061977215 0.17106871 -0.11178061 0.30926037 -0.06688535 -0.001089819
-0.043549053 -0.012785009 -0.015975202 0.14075541 0.049804732 0.07169303 0.1199855 -0.0088491365
0.11935786 -0.006384412 0.2164502 0.14632575 -0.11820872 0.09583454 0.15750645 -0.20477782
0.027309187 0.047905877 -0.04290224 0.050148338 0.15217012 -0.010478805 0.15916562 0.0023927102
0.07046807 -0.10920509 0.10528906 0.16550529 0.12538639 0.16606204 0.05323273 -0.0128575945
-0.013761976 0.17230605 -0.036024667 -0.14753844 -0.09464381 -0.15967354 0.1324794 -0.11561056
-0.061523143 -0.07112575 -0.10145682 -0.042560764 0.008529281 0.08818994 -0.0946094 0.060421932
-0.05496507 0.17621866 0.07260607 0.013837334 0.23736031 0.026139846 -0.023785414 -0.09283988
0.16520329 -0.08121403 -0.049738728 -0.103333555 -0.13179979 0.1352364 0.0054170643 -0.05230536
0.011870074 -0.0023993326 0.048225027 0.12117614 0.17273198 -0.07509531 -0.11996202 0.07869803
0.13109092 -0.09988204 0.15938617 -0.11796804 0.051069718 -0.028822111 0.046938714 -0.18938474
0.11001962 0.04095048 -0.08965116 -0.13084014 -0.0012959122 0.06763148 0.08994831 0.18298186
-0.011738971 0.21299064 -0.048033822 -0.07111219 0.048965223 0.04930564 0.11573542 -0.028086789
0.014463862 0.13896406 0.1406386 0.00023509035 0.18197031 0.0136994105 -0.13496545 0.05088918
-0.06358448 -0.2541082 -0.12169292 -0.15152341 0.032685496 0.047403447 0.17821321 0.11861835
00000000: c00e 33be dd32 40be 20b9 c93d cc26 c93d
00000010: 8aac 003c 21c5 2a3e 904f bbbd 9204 b63d
00000020: d55a ce3d c336 6abc f68d 67be c3b9 2fbd
00000030: 7736 aebd f83f d83d 465a 0bbe 33f8 933d
00000040: 7ad6 48be cf1a 34be da14 e03d e3f8 dd3d
00000050: f56b 52be 9295 64bd 54d5 f33c 74be 18bc
00000060: 9087 01be 1410 48be 8d07 5fbe ecec 003e
00000070: 4bd6 a93d bb10 c5bd 2eb0 29be e6ba f5bd
00000080: 1bfe 15be dd5a bdbe 9366 04bf 60b7 52bd
00000090: e289 b2bd ed2c a33d 64d8 a93e 8ad4 debc
000000a0: 07e3 81bd e3ce 07be 1d7e a2be 33f9 f6be
000000b0: d04b 4f3d d37d ab3e cdc9 e7bc 4bab 18be
000000c0: 6452 c73e 436a 66bd ebd5 16be 1074 22bc
000000d0: bdb2 80be 8660 3a3d 4700 c03d db36 16be
000000e0: 7415 0b3e e172 443e 0029 a83e 58df 41bd
000000f0: 59e3 6a3e 2735 c6bd 7aa6 22be 3f6c c43e
00000100: 9f36 fcbd add6 27be 26b1 2d3e b21a c839
00000110: 52af a3bc b122 343e c235 58bd b008 f6bc
00000120: 85fe 43be 1fe4 303e 015e 003d a24d 073d
00000130: f176 ebbd 64d0 8c3d 9b1f b1bd a5f8 cf3d
00000140: 6fad f93d 7d4e 9ebc 9dab 4b3e 32b9 ff3d
00000150: 1bd0 013d 0fc3 eb3c fc6c 873d b69a 20bd
00000160: db7a 0a3e 5e4a 38be ece7 b73d 56fe 1fbe
00000170: 6ab5 5b3e 0a56 eebd fb98 a0bd 4d27 f8bd
00000180: d2de b63d ea43 2bbb d7d8 c43c defe 123e
00000190: c85a 07be ee74 84bd 68a1 46be 5651 2e3d
000001a0: 426a ddbc 97b9 43be 4aa7 2b3e e59f 003e
000001b0: 4a8d 17bd 5465 843c 6f8a 6cbd d8b6 3e3e
000001c0: 9e65 233e 7f1b fcbd 61cf e9bd 777e e63c
000001d0: 5985 893d 9582 9abd 9e59 5b3e f77e 04be
000001e0: 9a39 dc3c 7f90 393d bcdd 793d 35e1 003d
000001f0: 851f 933e 2c66 92bd 15f9 563e 96a9 a9bd
00000200: 408d e83c 7525 423e 4f49 10be 2f64 c1bd
00000210: 2b2a 1fbe b9c4 3abe 016a 1a3e 3365 34bd
00000220: 4aba 34be 5863 b83d d2db 7dbd a32c 2f3e
00000230: 3ced e4bd 6057 9e3e 30fb 88bd 42d8 8eba
00000240: 7e60 32bd 3778 51bc 6dde 82bc 3022 103e
00000250: 0c00 4c3d ccd3 923d f5ba f53d f8fb 10bc
00000260: e571 f43d 5434 d1bb 1fa5 5d3e 6bd6 153e
00000270: 6a17 f2bd e644 c43d 5f49 213e 47b1 51be
00000280: 84b7 df3c f438 443d 42ba 2fbd 5868 4d3d
00000290: 7cd2 1b3e 4baf 2bbc 50fc 223e 04cf 1c3b
000002a0: 9051 903d eba6 dfbd caa1 d73d 387a 293e
000002b0: 4a65 003e 2b0c 2a3e 900a 5a3d a9a8 52bc
000002c0: e979 61bc ff70 303e 9a8e 13bd 5114 17be
000002d0: 9dd4 c1bd 7681 23be aea8 073e 3bc5 ecbd
000002e0: b1ff 7bbd 61aa 91bd 98c8 cfbd 3254 2ebd
000002f0: 66be 0b3c ed9c b43d 93c2 c1bd fd7c 773d
00000300: 0e23 61bd aa72 343e 7eb2 943d fcb5 623c
00000310: 950e 733e 3b23 d63c a1d9 c2bc d622 bebd
00000320: 0d2b 293e 8b53 a6bd d6ba 4bbd 8ba0 d3bd
00000330: 86f6 06be 697b 0a3e a181 b13b 253e 56bd
00000340: b37a 423c 1f3e 1dbb 9b87 453d 322b f83d
00000350: a7e0 303e 92cb 99bd a6ae f5bd 6f2c a13d
00000360: b33c 063e f48e ccbd 2136 233e 3a99 f1bd
00000370: 7b2e 513d 591c ecbc cf42 403d 13ee 41be
00000380: f751 e13d b1bb 273d 079b b7bd f5fa 05be
00000390: 99db a9ba 6082 8a3d d236 b83d 995f 3b3e
000003a0: d054 40bc 381a 5a3e 1dbf 44bd 45a3 91bd
000003b0: c28f 483d b6f4 493d b106 ed3d 4416 e6bc
000003c0: d6f9 6c3c 984c 0e3e 9103 103e 9682 7639
000003d0: 6d56 3a3e 7e73 603c 6234 0abe 2c71 503d
000003e0: 9438 82bd 781a 82be 233a f9bd f428 1bbe
000003f0: 3ae1 053d 1e2a 423d 867d 363e 2dee f23d

encoder.6.bias f4 [32]
-0.10132609 0.1773974 0.13509056 -0.009757355 0.015543696 0.18429731 0.13863921 0.06088711
0.07931444 -0.05803455 0.11482234 0.3105141 -0.047434192 -0.09334646 0.026139274 0.047230065
0.054223374 0.011226128 -0.09341159 0.4378248 0.63181055 -0.077970676 0.08760992 -0.0028370786
0.036511347 0.20937961 0.29514128 0.26897955 0.03522403 0.8905582 0.057045143 0.16297483
00000000: 0e84 cfbd aaa7 353e 2e55 0a3e 50dd 1fbc
00000010: fcaa 7e3c 6fb8 3c3e 70f7 0d3e c364 793d
00000020: 9c6f a23d a3b5 6dbd fa27 eb3d b4fb 9e3e
00000030: 5b4a 42bd 6e2c bfbd 0822 d63c 5074 413d
00000040: 5419 5e3d cbed 373c 934e bfbd 922a e03e
00000050: 56be 213f 17af 9fbd d46c b33d 48ee 39bb
00000060: ec8c 153d 9c67 563e c21c 973e b0b7 893e
00000070: 1347 103d 9ffb 633f 2ba8 693d e0e2 263e

decoder.0.weight f4 [32, 32]
0.05033548 -0.061559178 -0.09938519 -0.13861497 -0.102241434 -0.006558792 -0.07818057 -0.16554461
0.004407586 0.05710269 -0.17196836 -0.06942068 0.1662213 -0.11440642 -0.045902632 -0.03976848
-0.06674658 0.01467008 0.008145049 -0.11965183 0.0023131447 -0.020533819 -0.105075404 -0.08526648
0.045918275 -0.023424277 0.11789573 0.022636656 -0.056763563 0.08474595 -0.105176866 0.013952217
0.15359499 -0.06076692 -0.05050219 -0.041738257 -0.22621784 0.13924782 0.09078556 0.11315805
-0.101651214 0.0831751 -0.26053318 -0.10543713 0.12668902 0.046684906 -0.012741112 -0.007046387
-0.137693 -0.03057344 0.015740559 0.10788137 -0.12840575 0.014087212 -0.010249967 -0.13103668
-0.21755172 -0.23209979 0.10370826 -0.12890184 0.07355062 -0.12302356 0.046234768 -0.23994112
0.08225447 -0.02892446 -0.06457953 -0.1391314 -0.0044259084 0.030381635 -0.25232875 0.09977529
-0.031009274 -0.05945335 0.056185376 0.06811029 -0.054289285 -0.0049030436 0.18737647 -0.028583014
0.19542393 -0.08523512 0.04579017 0.18272232 0.10475398 -0.0008037368 0.15633497 -0.11724717
-0.050157227 0.08492986 -0.19546689 0.05181234 0.13497366 0.07730106 0.03819237 0.18189038
-0.13581364 0.07573936 0.19296937 0.14195885 -0.1202288 0.09527523 -0.04035538 0.27678853
0.0015638925 -0.035183173 0.048288006 -0.19751959 -0.13059734 -0.12340041 -0.08578557 0.0436385
0.19806369 -0.13675931 -0.0030218058 0.016821776 0.15899885 -0.03256723 0.070827276 0.1194949
-0.069484755 -0.00994015 0.16624062 -0.17433135 0.058781948 -0.02208073 -0.13997321 0.055127047
-0.044807456 -0.100437626 -0.009323348 -0.16310102 -0.19033824 0.046269935 0.06382515 0.050766062
0.10275021 -0.17337751 -0.11372001 -0.104709245 0.07655259 0.15071581 0.12458291 0.068008825
0.043391004 -0.15788312 0.16141506 0.09949238 -0.1517645 -0.17839459 -0.15863954 -0.16086476
-0.123288654 -0.08715942 0.0036005708 0.07743706 -0.16520345 0.060400944 -0.08179145 0.0504516
0.007413091 0.13904779 -0.032985277 -0.21857853 -0.14786881 0.11400338 0.111441806 -0.08515779
0.12502183 -0.1740154 0.027573008 0.04881539 0.045690916 -0.1281583 -0.062684216 -0.113205634
-0.14581512 -0.010290241 0.13559835 -0.15606524 0.12280783 -0.07688641 0.039288245 -0.17153265
0.0483844 -0.12830687 0.15510462 -0.094914176 -0.062824026 0.07424074 0.029241005 -0.17029418
0.16978638 0.34646133 -0.03855174 -0.09673186 -0.24110119 0.25865185 0.04256415 0.041695353
0.046253737 -0.1346367 -0.0114504015 -0.064952694 -0.10281657 0.019513182 -0.15849589 0.16591911
-0.04719924 -0.038515534 -0.103018746 0.076601684 0.10198855 0.050002 0.015794858 0.11264326
0.13689914 0.20032535 -0.06771398 -0.09493471 -0.037093766 0.2530542 0.18314442 0.016434852
-0.02743256 0.13890116 0.1472649 0.031407185 0.11244271 0.21251382 -0.09445836 0.086489156
-0.015683336 0.042769175 -0.030351814 0.24664317 -0.073768914 -0.07639139 0.018206552 0.0050893277
-0.118620425 -0.2748417 -0.14020935 0.049651194 0.08626855 0.08029413 0.02498524 -0.07342609
0.17336468 0.08122255 0.07488158 -0.18450502 0.19110245 -0.23075095 0.15795362 -0.08621025
00000000: 942c 4e3d 7a25 7cbd 768a cbbd 15f1 0dbe
00000010: f563 d1bd 23eb d6bb 221d a0bd 8784 29be
00000020: 836d 903b 83e4 693d 7918 30be 6e2c 8ebd
00000030: eb35 2a3e ea4d eabd 6604 3cbd 46e4 22bd
00000040: 6eb2 88bd c65a 703c d072 053c 050c f5bd
00000050: 2198 173b 8a36 a8bc c631 d7bd 31a0 aebd
00000060: cd14 3c3d 45e4 bfbc 5173 f13d 8270 b93c
00000070: e980 68bd 498f ad3d f866 d7bd d797 643c
00000080: 0148 1d3e bce6 78bd 62db 4ebd bcf5 2abd
00000090: a6a5 67be fb96 0e3e c8ed b93d 68bf e73d
000000a0: 832e d0bd b557 aa3d 9b64 85be 6cef d7bd
000000b0: c4ba 013e ac38 3f3d 19c0 50bc 61e5 e6bb
000000c0: 65ff 0cbe 2775 fabc 58f2 803c e8f0 dc3d
000000d0: cc7c 03be 0dce 663c 7aef 27bc 7b2e 06be
000000e0: e1c5 5ebe 91ab 6dbe ff64 d43d d8fe 03be
000000f0: b5a1 963d c7f3 fbbd ab60 3d3d 20b3 75be
00000100: 0875 a83d fdf2 ecbc 4642 84bd 7678 0ebe
00000110: 3607 91bb e8e2 f83c 3c31 81be fd56 cc3d
00000120: 2907 febc 5b85 73bd a322 663d 687d 8b3d
00000130: 715e 5ebd b6a9 a0bb 9edf 3f3e ed26 eabc
00000140: 361d 483e c08f aebd 798e 3b3d 8f1b 3b3e
00000150: 4189 d63d ddb1 52ba 4616 203e 491f f0bd
00000160: aa71 4dbd b5ef ad3d 7928 48be 2d39 543d
00000170: 8936 0a3e 0550 9e3d 9a6f 1c3d 7941 3a3e
00000180: bb12 0bbe 3d1d 9b3d c399 453e a95d 113e
00000190: 843a f6bd a91f c33d af4b 25bd 3ab7 8d3e
000001a0: 86fb cc3a 3b1c 10bd a5c9 453d 9342 4abe
000001b0: 4fbb 05be 5bb9 fcbd 58b0 afbd 49be 323d
000001c0: 35d1 4a3e a20a 0cbe 7d09 46bb d2cd 893c
000001d0: 98d0 223e 3765 05bd e40d 913d beb9 f43d
000001e0: 064e 8ebd 03dc 22bc fb3a 2a3e eb83 32be
000001f0: 57c5 703d a6e2 b4bc 2355 0fbe e6cc 613d
00000200: 0688 37bd 3eb2 cdbd f5c0 18bc f403 27be
00000210: 07e8 42be 8b85 3d3d c3b6 823d 13f0 4f3d
00000220: b46e d23d e089 31be 09e6 e8bd cd71 d6bd
00000230: 9bc7 9c3d 3f55 1a3e 5325 ff3d 3648 8b3d
00000240: c4ba 313d 1dac 21be fd49 253e a9c2 cb3d
00000250: 2768 1bbe 12ad 36be 6772 22be bbb9 24be
00000260: c37e fcbd a380 b2bd 8ef7 6b3b 5297 9e3d
00000270: 182b 29be fb66 773d 4782 a7bd 56a6 4e3d
00000280: 84e9 f23b 8b62 0e3e 921b 07bd 0dd3 5fbe
00000290: ec6a 17be 9b7a e93d 9a3b e43d 3567 aebd
000002a0: b905 003e 1831 32be cae0 e13c a5f2 473d
000002b0: 6626 3b3d ee3b 03be 9560 80bd 5bd8 e7bd
000002c0: 8f50 15be 6698 28bc 4bda 0a3e 91cf 1fbe
000002d0: ac82 fb3d 9f76 9dbd b6ec 203d 41a6 2fbe
000002e0: b82e 463d e062 03be bfd3 1e3e 5d62 c2bd
000002f0: e2a9 80bd 870b 983d d58a ef3c 9961 2ebe
00000300: 7bdc 2d3e 6163 b13e 6ee8 1dbd 5a1b c6bd
00000310: 3be3 76be 046e 843e bf57 2e3d bfc8 2a3d
00000320: 8f74 3d3d 34de 09be 779a 3bbc eb05 85bd
00000330: 7e91 d2bd 1cda 9f3c bf4c 22be b3e6 293e
00000340: fe53 41bd 77c2 1dbd 7efb d2bd 58e1 9c3d
00000350: 5fdf d03d e6ce 4c3d 3864 813c 82b1 e63d
00000360: 4a2f 0c3e 1722 4d3e a1ad 8abd 216d c2bd
00000370: a2ef 17bd 5290 813e 368a 3b3e 62a2 863c
00000380: 40ba e0bc 1b3c 0e3e 9ccc 163e d2a4 003d
00000390: 5d48 e63d 399d 593e 6273 c1bd 3a21 b13d
000003a0: 577a 80bc bb2e 2f3d 5ea4 f8bc 0790 7c3e
000003b0: 2814 97bd 1773 9cbd e825 953c 60c4 a63b
000003c0: 44ef f2bd 0db8 8cbe 0a93 0fbe 0d5f 4b3d
000003d0: 91ad b03d 4071 a43d d9ad cc3c 6b60 96bd
000003e0: 8386 313e 0258 a63d 845b 993d e2ee 3cbe
000003f0: 5cb0 433e fa49 6cbe 98be 213e 008f b0bd

decoder.0.bias f4 [32]
-0.14325975 0.122580044 0.26312163 0.0992513 -0.027713519 0.096080184 0.20558333 -0.083628275
0.08667127 0.18550913 -0.20553106 -0.2418814 0.016459463 0.4844334 -0.14842506 0.121429384
0.059881937 0.114676245 -0.0052397605 -0.07194492 -0.084948435 0.18448566 0.3176092 -0.17640562
0.14661446 -0.11480529 0.16308288 -0.16142638 0.021045256 -0.050117992 0.2327496 0.19273524
00000000: afb2 12be 3f0b fb3d e1b7 863e 4444 cb3d
00000010: 7607 e3bc b0c5 c43d 7084 523e 4d45 abbd
00000020: b580 b13d 1bf6 3d3e bc76 52be c2af 77be
00000030: ffd5 863c a807 f83e bdfc 17be f8af f83d
00000040: c346 753d 61db ea3d 4cb2 abbb dc57 93bd
00000050: 72f9 adbd cfe9 3c3e ac9d a23e ada3 34be
00000060: 1a22 163e 091f ebbd 33ff 263e f54c 25be
00000070: 1a67 ac3c 8648 4dbd e955 6e3e 635c 453e

decoder.2.weight f4 [64, 32]
0.055127054 0.16736443 0.019017393 -0.16428298 0.07677651 0.14216548 0.030847043 -0.44854164
0.10043237 0.1353886 0.1671732 0.23486902 -0.09893022 0.11972807 -0.056100097 0.21862099
-0.09434351 0.008083376 -0.14937937 0.15996505 -0.14365801 0.023834493 -0.028584583 0.05192754
0.02442418 -0.090593584 0.009179955 0.027519466 -0.16641816 -0.23552124 0.22167198 0.13316259
-0.16978209 0.15829132 0.13683774 -0.05580033 -0.13948792 0.12656352 -0.046207704 0.056251235
-0.06925845 0.06312219 0.019177541 0.13518997 -0.11210203 0.11271644 0.086339645 0.16396768
0.039500356 -0.17209487 -0.172336 -0.05960462 -0.026020005 0.11700319 -0.42074338 0.15509896
-0.10172958 0.17618714 -0.096141346 0.16783276 -0.029184101 -0.060819913 0.18423013 -0.104810335
0.033726193 -0.04026237 0.03626661 -0.1989107 0.053355865 0.09386181 0.038410213 0.027166016
0.06552139 0.11025053 -0.14834805 0.045680586 -0.069420345 0.24157019 -0.26268536 -0.3832608
-0.29336938 0.127038 0.16813907 -0.24905452 0.1334502 0.00081263995 -0.053571075 0.14756082
0.00042853976 0.06428521 -0.09771845 0.11876308 -0.02660199 0.055141762 -0.035700027 -0.021294856
-0.017155582 0.014246381 -0.0014399928 -0.1598818 -0.13327546 -0.092877515 -0.011016005 -0.07675804
-0.14631984 -0.12578827 -0.1765506 0.13422762 -0.08638899 0.3189763 -0.2170661 0.16019283
-0.10218514 -0.028965186 0.047855116 0.06731179 0.006675565 0.24817903 -0.0829382 -0.012951286
0.23609796 -0.026181415 -0.22640795 -0.15236033 -0.106327094 0.06668735 -0.0022353749 0.331965
-0.07706142 0.17092566 -0.101306304 -0.07553138 -0.1267544 -0.032048836 0.066175856 0.052591987
0.01824388 -0.1890359 0.039670736 0.16409342 0.09430851 0.043589562 -0.19168326 0.001161811
0.024284318 0.087364726 -0.12929055 -0.017698571 -0.13336168 -0.088532865 0.13593002 -0.1135601
0.05640021 0.13852172 0.041040834 -0.1602058 0.03126511 0.07193471 -0.17673455 -0.15102088
-0.12793848 0.18121009 -0.045329522 0.14077874 -0.14875145 -0.034814786 0.32050177 -0.11958137
0.04152392 -0.047389492 -0.10346467 -0.20971134 0.08039419 0.21095607 0.044083226 -0.14568558
0.049024787 -0.11302003 0.13340907 0.13561785 0.02940657 0.099514104 0.013272884 0.19891678
-0.12387648 0.12462922 -0.13781182 -0.42511353 0.109414466 0.048532788 -0.05152167 0.17209214
0.09129826 0.062242545 0.12239801 0.16774145 -0.053861316 0.052398767 -0.26640207 0.11488723
0.13722284 0.0944329 -0.0031746528 -0.09604434 0.08383957 0.15326083 0.004226477 0.10337998
-0.016562276 -0.10586006 -0.05574993 0.17041105 0.061619997 -0.04718439 0.20374052 -0.014715923
0.07240831 0.009053111 -0.1284163 -0.04541136 0.09836644 -0.043672476 0.033719093 0.13273375
-0.16793492 -0.20100743 0.005836742 0.17646939 0.1467338 -0.15048432 0.076617315 -0.1522702
0.14905585 0.09297519 -0.012735782 0.02553525 0.026520057 -0.08733993 0.11958083 -0.08821461
-0.08933764 -0.09527369 -0.027298084 -0.023143118 0.10196234 -0.22445314 -0.039011214 0.06439178
-0.008199842 0.08324537 -0.017706374 0.006465422 -0.0671667 -0.086055435 0.04018857 -0.05446433
00000000: e8cc 613d 9561 2b3e 5dca 9b3c cc39 28be
00000010: 013d 9d3d d493 113e f0b2 fc3c 40a7 e5be
00000020: 7daf cd3d 4fa3 0a3e 742f 2b3e 8181 703e
00000030: ed9b cabd fe33 f53d 37c9 65bd 2ede 5f3e
00000040: 2c37 c1bd 2370 043c e8f6 18be e1cd 233e
00000050: 161b 13be 8e40 c33c 372a eabc f9b1 543d
00000060: 3815 c83c 2189 b9bd 8667 163c 8170 e13c
00000070: 8669 2abe 7b2c 71be fbfd 623e c65b 083e
00000080: 5bdb 2dbe 1f17 223e 311f 0c3e e38e 64bd
00000090: ecd5 0ebe de99 013e 4a44 3dbd b267 663d
000000a0: 60d7 8dbd 3546 813d 381a 9d3c 3d6f 0a3e
000000b0: c095 e5bd e0d7 e63d d7d2 b03d 25e7 273e
000000c0: 20cb 213d a339 30be d978 30be f923 74bd
000000d0: e827 d5bc 5e9f ef3d ad6b d7be 43d2 1e3e
000000e0: 9957 d0bd 676a 343e c1e5 c4bd 5adc 2b3e
000000f0: 7f13 efbc 4d1e 79bd d3a6 3c3e cda6 d6bd
00000100: 7a24 0a3d 28ea 24bd 4c8c 143d 3faf 4bbe
00000110: ae8b 5a3d 9f3a c03d 0754 1d3d 448b de3c
00000120: 1430 863d 08cb e13d 8de8 17be 911b 3b3d
00000130: 412c 8ebd 2d5e 773e b27e 86be c23a c4be
00000140: 8334 96be 4016 023e a62c 2c3e 2608 7fbe
00000150: 2ba7 083e 5807 553a 586d 5bbd 2f1a 173e
00000160: a2ad e039 f7a7 833d 9c20 c8bd 0f3a f33d
00000170: 6bec d9bc 54dc 613d 313a 12bd 8d72 aebc
00000180: dd89 8cbc a769 693c 24be bcba 0eb8 23be
00000190: 5d79 08be 9136 bebd 797c 34bc 5233 9dbd
000001a0: ded4 15be a4ce 00be aec9 34be f772 093e
000001b0: b6ec b0bd dd50 a33e 9346 5ebe 9709 243e
000001c0: 7146 d1bd 6648 edbc ba03 443d c4da 893d
000001d0: b3be da3b a522 7e3e 81db a9bd a131 54bc
000001e0: aac3 713e 687a d6bc 7cd7 67be 5904 1cbe
000001f0: 05c2 d9bd 6193 883d 5e7f 12bb 51f7 a93e
00000200: 61d2 9dbd 2307 2f3e ae79 cfbd 32b0 9abd
00000210: e8cb 01be a445 03bd 3587 873d b26a 573d
00000220: 3074 953c a192 41be c87d 223d 1b08 283e
00000230: d224 c13d f88a 323d 9e48 44be e847 983a
00000240: e8ef c63c 47ec b23d be64 04be 98fc 90bc
00000250: f78f 08be b850 b5bd 3d31 0b3e 3392 e8bd
00000260: e803 673d a3d8 0d3e 6f1a 283d fd0c 24be
00000270: d80f 003d 8152 933d e7f9 34be 38a5 1abe
00000280: 4e02 03be 238f 393e 73ab 39bd 4d28 103e
00000290: 4d52 18be f399 0ebd cf18 a43e 14e7 f4bd
000002a0: fc14 2a3d 7c1b 42bd 49e5 d3bd 92be 56be
000002b0: b6a5 a43d de04 583e 9d90 343d 9a2e 15be
000002c0: 37ce 483d 0c77 e7bd 639c 083e 68df 0a3e
000002d0: 0ce6 f03c 0dce cb3d 8376 593c d7b0 4b3e
000002e0: f4b2 fdbd 9b3d ff3d 8b1e 0dbe 7ba8 d9be
000002f0: b114 e03d 51ca 463d 6308 53bd ec38 303e
00000300: 95fa ba3d 0af2 7e3d cfab fa3d 6ac4 2b3e
00000310: af9d 5cbd 17a0 563d da65 88be ff49 eb3d
00000320: 2584 0c3e 0966 c13d d60d 50bb e5b2 c4bd
00000330: 15b4 ab3d 68f0 1c3e 427e 8a3b e2b8 d33d
00000340: 9cad 87bc 29cd d8bd 0a5a 64bd 3c80 2e3e
00000350: 4065 7c3d 6b44 41bd 5ba1 503e 0e1b 71bc
00000360: cf4a 943d 8053 143c 907f 03be 4301 3abd
00000370: 5874 c93d e9e1 32bd 081d 0a3d 5beb 073e
00000380: 22f7 2bbe e4d4 4dbe 2442 bf3b 64b4 343e
00000390: 6341 163e 9018 1abe 8ae9 9c3d b8ec 1bbe
000003a0: 19a2 183e c769 be3d bea9 50bc 4d2f d13c
000003b0: 9740 d93c 47df b2bd cbe6 f43d dda9 b4bd
000003c0: a7f6 b6bd da1e c3bd 3ba0 dfbc a396 bdbc
000003d0: a2d1 d03d 0bd7 65be 39ca 1fbd d6df 833d
000003e0: a158 06bc 8c7c aa3d f50c 91bc e4db d33b
000003f0: b28e 89bd d53d b0bd c59c 243d fd15 5fbd

decoder.2.bias f4 [64]
-0.20649536 0.12181676 0.6630042 0.4282268 -0.17747168 0.29637367 -0.43868655 0.5002553
0.17033924 0.19937432 0.019042522 -0.5167686 0.027035583 0.35948452 -0.49510455 -0.018863412
-0.032692254 0.66743875 0.24552809 0.3839122 0.038534466 0.41612586 0.81357974 -0.0823495
-0.2784296 0.41771758 0.80967194 -0.017049199 -0.7819449 0.39399853 -0.351787 0.44632536
0.16755867 0.11960706 0.06896195 -0.12386039 -0.25148097 -0.34729722 0.4068603 0.1891891
0.03998766 -0.22469139 0.15470873 0.5519393 0.19520323 0.115490794 -0.14826761 0.2956581
0.21775533 0.22957788 0.003339787 0.2797294 -0.18890215 0.14170568 0.2599211 0.21668321
-0.118634775 0.11750814 0.47715184 0.1051215 -0.14738324 0.09118892 0.4010864 0.19647749
00000000: 8573 53be 117b f93d a5ba 293f 8b40 db3e
00000010: 23bb 35be 4abe 973e 869b e0be bb10 003f
00000020: 696d 2e3e c828 4c3e 10ff 9b3c f24a 04bf
00000030: ba79 dd3c 5b0e b83e 587e fdbe 7187 9abc
00000040: 50e8 05bd 44dd 2a3f b76b 7b3e 2490 c43e
00000050: 51d6 1d3d 730e d53e c346 503f dba6 a8bd
00000060: 538e 8ebe 14df d53e a946 4f3f c3aa 8bbc
00000070: 8a2d 48bf 2dba c93e 6d1d b4be c284 e43e
00000080: 8094 2b3e 8cf4 f43d ec3b 8d3d 84aa fdbd
00000090: 1dc2 80be f1d0 b1be fe4f d03e caba 413e
000000a0: 1aca 233d 8015 66be f76b 1e3e e54b 0d3f
000000b0: 5be3 473e 7086 ec3d 77d3 17be 8060 973e
000000c0: 41fb 5e3e 7716 6b3e 54e0 5a3b b138 8f3e
000000d0: 916f 41be 4b1b 113e 6114 853e 34e2 5d3e
000000e0: caf6 f2bd 1ca8 f03d 3f4d f43e f149 d73d
000000f0: a2eb 16be 42c1 ba3d 325b cd3e 6531 493e
