trained_models/checkpoint.pth.tar (torch_old, 876695 bytes, 12 tensors)

encoder.0.weight f4 [128, 784]
00000000: 56c0 963c 7a22 81bc 94df e2bb ee52 893c
00000010: 02b8 09bd cc75 af3c e4c1 f0bb 0cd8 943c
00000020: 88b0 a23b 704b 8fbb b84b 223c e0ed e63a
00000030: f0b5 553c e007 64bc f0a5 2abb 20b7 52bb
00000040: 38a0 a93b 009a 15b9 96c1 ff3c 3817 363c
00000050: 2ee9 59bc acb3 b0bc 8028 c4bb 5c65 7cbc
00000060: 1882 3bbc 0024 e03a f268 ae3c f805 9f3c
00000070: 7200 0fbd fc5e b53c c077 233c 97c2 0a3d
00000080: 5a1d c13c 5449 05bd f616 0bbd da1d 8dbc
00000090: 8974 003d d436 c3bb e812 7a3c 1ef6 87bc
000000a0: c789 0f3d e3f5 77bc d367 db3c a274 d239
000000b0: 7168 9abc d662 963c 854d 9bbc e017 2c3c
000000c0: d8f6 28bc b84d 80bb 2aa3 0cbd 237e 8bbc
000000d0: 5cc2 9e3c 243c 0ebc 33b5 113d 9a85 ea3c
000000e0: 2030 dbba 5849 c3bc 3a2a b23c 709a 353c
000000f0: bc1f bdbc c809 be3c e29e b13c 75bd 013d
00000100: f500 a4bc 2cb2 c1bb 996b 48ba 8005 a83b
00000110: cfce debc e3fe cfbc 9aee 9e3c 6525 0abc
00000120: f4fc 8d3c 9bc6 fd3a c0c9 3e3c 6d40 003c
00000130: 881b 553c fc3a 913c 1b7a 07bd 2a44 933c
00000140: bab6 cdbc 6ebf dcbc 2057 0e3b d46c c7bb
00000150: 90d5 ab3c 4570 a9bc 9d0b 02bd a2ec d43c
00000160: 3888 adbb 168f a43c f11c 3c3c b370 dbbc
00000170: 2db1 e93b ffa5 0a3c 2c9d c5bc 5cf0 8cbc
00000180: 034f 433c 6ae5 cd3b 2e40 78bc 4ec0 2fbc
00000190: 51e3 053d 1f07 dcbb 9215 a53c 9d73 7f3c
000001a0: 7f99 bbbc d5ff f7bc 157a 0c3d 8ac9 f33a
000001b0: a28b c83c 2085 f23b fc31 3c3c ec89 da3c
000001c0: d3b5 0a3d 1525 c2bc d051 923b 6655 da3c
000001d0: f2f2 d33c b2c1 b53c 5dfd d3bc 2803 d3bc
000001e0: 42ac b1bc eea7 8a3b ad45 103d 6cfa bcbc
000001f0: 9a0d 983c d897 a1bc be7b 06bd b09b cfbb
00000200: a29a b43c 790a 0e3d e784 a9bc e815 113c
00000210: 84c8 003d dc0d c43c 1609 b73c b0f1 cf3c
00000220: bcb6 b83c 7e1b 173c f510 c8bc 7ab0 f5bc
00000230: f00f 86bc 6846 88bb 1355 b3bc a013 563c
00000240: 3f18 353c 7323 04bc 0ac7 603c 244f 3c3c
00000250: c294 b13c d2ce c33c 3947 45bc f529 103d
00000260: 244e 47bb 50c4 903a bade f6bc 5cdb 97bc
00000270: b95b 82bc e606 29bc 4ec9 f23c 2cdd 0cbc
00000280: 0314 cbbc 9e9f 703c f065 413c dedc bd3c
00000290: a937 98bc 70b5 fb3b 3e0f 55bc 8077 03bc
000002a0: d327 e9bc b757 85bc 5c34 33bc 4f32 7a3c
000002b0: b227 d63b 2dea 103c 1326 123d 59ca 0e3d
000002c0: aa1b c93c 28bf e13a 988d bebc 6417 f93c
000002d0: 2471 a2bb 7f29 343b 38d2 c3bc ba2b 233a
000002e0: a674 76bc c83d 243d c753 cabc 9dc6 babc
000002f0: 1987 183b 500d 8dbc a086 603c 67d2 5dbc
00000300: 046f 8abc 1aa9 fa3a 2990 d33c 3ccd cdbc
00000310: b464 893c c2f5 bb3c a718 0f3d 7e27 cdbc
00000320: 45e7 0c3c aabf d8bc e81c fa3c 9597 5ebc
00000330: 1ce7 b53c 43b4 233b b198 5cb7 6e3b 523b
00000340: 2fe1 433c 548a c13c 3279 4e3c fdfc 933c
00000350: e71b cebc 7c81 023d 1118 163d 3c4d 0f3d
00000360: 11ec fd3c 983f babc 968e 40bc 44bc 023d
00000370: 7db2 dfbc 5929 043d 597b e6bc fe16 cebc
00000380: 2008 8f3c 9a35 d2bc f629 07bc 51d8 d33c
00000390: 2d72 e63c 3cbf 093d cc70 ebbb e9a4 e0bc
000003a0: 9648 133d f690 bdbb dea9 3cbc 0365 5a3c
000003b0: b365 9fbc e938 ec3c 7740 dd3c d82f c4bc
000003c0: 5c96 d1bc 76b2 0938 6cce 9b3c e316 8c3b
000003d0: 5d42 59bc 1310 873b 04a8 01bd a619 c9bc
000003e0: 7d79 c2bc ce2b f03c a3f3 003d eac0 46bc
000003f0: a3c1 d13a fc7a 823c 71f0 893b 749f 93bc
0.01840226 -0.01576351 -0.0069236252 0.016763177 -0.03362275 0.021418475 -0.0073473323 0.018169425
0.004964892 -0.0043730065 0.009905748 0.00176185 0.013043866 -0.013917893 -0.0026038848 -0.0032152608
0.0051765703 -0.00014267117 0.031220239 0.011113934 -0.013300223 -0.02157005 -0.0059862733 -0.015405025
-0.011444591 0.0017100573 0.021290276 0.019412026 -0.034912534 0.022140019 0.009977281 0.03387698
0.023573566 -0.032540634 -0.033957444 -0.017226148 0.031361137 -0.0059574638 0.015263297 -0.01659685
0.035043504 -0.015134308 0.026782906 0.0004014122 -0.01884863 0.018357676 -0.018957863 0.010503739
-0.010312758 -0.003915515 -0.034335293 -0.01702792 0.019379787 -0.008681331 0.035573196 0.02862816
-0.0016722716 -0.023838684 0.02174865 0.011084184 -0.023086421 0.023198023 0.021682207 0.03167482
-0.020019988 -0.0059111323 -0.0007645428 0.005127609 -0.027198223 -0.025390094 0.019400883 -0.008431767
0.017332532 0.0019361557 0.011644781 0.00782786 0.013007052 0.017728321 -0.033075433 0.01797684
-0.025111545 -0.02694675 0.002171941 -0.0060859714 0.020975858 -0.020683417 -0.031749357 0.025991742
-0.0052957796 0.02008776 0.01148151 -0.026787138 0.0071317167 0.008462428 -0.024122797 -0.017204456
0.011920693 0.006283452 -0.01515202 -0.010727001 0.03268749 -0.006714716 0.020151887 0.015591529
-0.022900341 -0.030273357 0.034296114 0.0018599492 0.024480645 0.0074011236 0.011486527 0.026677094
0.033864807 -0.023699323 0.004465319 0.02665205 0.025872681 0.022187088 -0.025877649 -0.025758341
-0.021688584 0.0042314446 0.035222698 -0.02306863 0.018561173 -0.019725725 -0.032832853 -0.006335698
0.02204639 0.034677956 -0.020693256 0.0088553205 0.031441227 0.02393239 0.0223432 0.0253838
0.022548072 0.009222863 -0.024422148 -0.029991377 -0.016365021 -0.0041587837 -0.021891152 0.013066202
0.011053144 -0.008065092 0.01371933 0.011493478 0.021677379 0.02390233 -0.012040907 0.035196263
-0.0030411566 0.0011044834 -0.030135501 -0.018537216 -0.015912877 -0.010316586 0.029637005 -0.008597653
-0.024789816 0.014686493 0.011804089 0.023176607 -0.018581228 0.007681541 -0.013004122 -0.0080240965
-0.028461372 -0.016277177 -0.010937776 0.015270784 0.006535494 0.008844894 0.03568084 0.034860943
0.024549324 0.0017223107 -0.023260877 0.030406661 -0.004957335 0.0027490554 -0.023903951 0.00062244723
-0.01504246 0.04009798 -0.024698151 -0.022799784 0.0023273884 -0.017218262 0.013703972 -0.013538933
-0.01689864 0.0019123883 0.025825577 -0.025122277 0.016771652 0.022944335 0.03493562 -0.025043245
0.008600061 -0.02645858 0.030531362 -0.013585945 0.022204928 0.002497927 -1.3148573e-05 0.003207888
0.011955543 0.02362553 0.012602137 0.01806497 -0.02515979 0.031861767 0.036644045 0.034985766
0.030996354 -0.022735402 -0.011752745 0.031917825 -0.02730679 0.032265995 -0.028134989 -0.025157448
0.017459929 -0.025660325 -0.00824975 0.025859984 0.028130615 0.03362964 -0.0071850773 -0.027422385
0.035957895 -0.005785103 -0.011515109 0.013329747 -0.019457674 0.02883573 0.027008278 -0.023948595
-0.025584392 3.282955e-05 0.019019328 0.0042751892 -0.013260451 0.0041217892 -0.031654373 -0.024548363
-0.02373957 0.029317763 0.03148235 -0.012130955 0.0016003143 0.015927784 0.004209571 -0.01802037

encoder.0.bias f4 [128]
00000000: 045a ecbc 5c85 503a d259 433c 6aa0 8138
00000010: c544 49bc 6fa4 5b3c 2557 263c 958a 8dbc
00000020: 7968 31bc 3f44 013d 5847 b03b 4818 eabc
00000030: 7d24 9c3c e053 843c 74d1 1a3a e840 cfbc
00000040: e376 d43c e828 7cbd fc94 f53c d61f aabc
00000050: 3a62 26bc c1d4 f4bc cdc0 8abc 1d06 fc3c
00000060: da82 1b3d 9494 433b d0e0 1cbc b4e2 63bb
00000070: 14d0 03bd 6ab4 c1bb 75e9 853c cd91 673b
00000080: 0e24 08bd aef4 16bc b543 4fbc 8dd3 333a
00000090: 9848 c0b8 8014 71bc 6eca 05bc dc36 ee3b
000000a0: ad62 d53c c994 f039 fc3d 213d 9cee 20bd
000000b0: 83c9 83bc d26e 2b3c 90e4 ce3b fcb8 a03c
000000c0: ab80 b5b9 8aad 0ebd 7dc0 93bc 49c0 abba
000000d0: ecd2 28bd bcbf 773c f251 d8bc 4bc4 373c
000000e0: b103 b93c 711b 1dbc d9fd 1bbd 58d8 c63c
000000f0: ccbb 7f3c 2e99 03bc 17fe d43b bd28 d5bc
00000100: 7b3b 253c f088 463c c130 dfbc a76a 11bd
00000110: f5a0 a83c 39b6 9abc 0c08 09bd 7ad4 91bc
00000120: 8863 6dbd 0d23 debb 0a77 b13c e7cc 6c3c
00000130: 43a2 de3c 4e6a 72bc a8f0 2cbc 43e4 f7bb
00000140: a79f fb3c ec2b 0bbd 7baa 62bd eb64 3ebb
00000150: f22b e1bc e043 a43c 51a0 4bbc e700 82bc
00000160: 7ad9 bf39 e241 ae3c 5882 9fbc 4a89 39bc
00000170: 9749 c83c 797d f9bc f1bb dcbc f19b 2a3c
00000180: d0db 5d3c dac9 cc3c 8487 6b3c 28ed f53c
00000190: f7bb cc3c d43b f2bc e51b 22bd 6166 99bc
000001a0: 333e 3d3c 3a0c 6b3d 2448 a7bb 4e8a d5bc
000001b0: c003 25bc 36b9 073b d912 8ebc d040 bebb
000001c0: 55a1 23bc 64b5 03bd ed47 b4bc 4124 e73b
000001d0: f979 f0bc 6b91 983c 8a75 cf3c 6796 d93c
000001e0: b737 03bc 0984 ce3a 7258 113d 3724 8d3c
000001f0: 1734 5cbc ffd3 88bc 8139 573c 46a8 52bc
-0.028851517 0.00079544424 0.01192327 6.181079e-05 -0.012284462 0.013405903 0.010152613 -0.017277995
-0.010828131 0.031559225 0.0053795986 -0.028576031 0.019060368 0.016153276 0.0005905845 -0.025299504
0.025935596 -0.06156245 0.029978268 -0.020767134 -0.010155255 -0.029886605 -0.016937638 0.030764634
0.037966587 0.0029843198 -0.009575084 -0.0034772577 -0.03218086 -0.0059113996 0.016346673 0.0035334707
-0.03323751 -0.00921361 -0.01265042 0.00068598316 -9.168795e-05 -0.01471436 -0.008165939 0.0072697233
0.026048029 0.0004588722 0.039365754 -0.039290056 -0.0160873 0.010463433 0.006313868 0.019619457
-0.00034618875 -0.03483347 -0.018036122 -0.001310357 -0.041216776 0.015121397 -0.026406262 0.0112162335
0.022584768 -0.009589062 -0.038083885 0.024273083 0.015608739 -0.008032126 0.0065000164 -0.026020402
0.010084982 0.012117609 -0.027244927 -0.035502102 0.020584563 -0.018885719 -0.03345494 -0.017801512
-0.05795625 -0.0067790807 0.021663208 0.014453149 0.027176982 -0.014795853 -0.010555424 -0.0075650527
0.030715777 -0.033977434 -0.055338364 -0.002905185 -0.027486775 0.020051897 -0.012428359 -0.01586957
0.00036592392 0.02127165 -0.019471332 -0.011324236 0.024449153 -0.030455338 -0.026945086 0.010413156
0.013541177 0.024998594 0.014375571 0.030020311 0.024991972 -0.029569544 -0.039577384 -0.018725576
0.011550474 0.057384707 -0.0051050354 -0.026066925 -0.010071695 0.002070976 -0.017342972 -0.005806066
-0.009987195 -0.03215541 -0.022006953 0.0070538823 -0.029355036 0.018624028 0.025324602 0.026560975
-0.008008889 0.0015755902 0.03548474 0.017229183 -0.013440154 -0.01670265 0.013136269 -0.012857502

encoder.2.weight f4 [64, 128]
00000000: 1acd 053d 7343 583d 2bf2 c8bc 58fc 0b3c
00000010: 1f95 87bd 8905 de3c 9943 51bc 804d 893d
00000020: 780f adbd 514b 42bd 3ec4 663d cc28 62bd
00000030: d488 a3bd 8ccb 963d 69da c2bc f613 3d3d
00000040: fa6b 9d3d e802 a3bc c805 62bd d408 ab3d
00000050: afd2 5e3d 1301 d2bc 7c4c ccbc 1ebd 313d
00000060: 19e3 873d 5100 14bd 4767 b0bd ef39 9d3d
00000070: 8f3b eebc 529f 98bd b231 813d cb91 25bd
00000080: 125b 91bd e5d6 7f3c 1eae 4f3d 359f b8bc
00000090: f9b7 373d 025d 86bd c720 ae3d ecf0 ab3d
000000a0: 78e8 b0bc 42a9 793d 34c0 70bd 3f1c 3e3b
000000b0: f6c7 193d 6976 73bd fda3 9d3c 140b b23d
000000c0: e864 7fbd 390a 0fbd 9f20 95bd efc8 30bd
000000d0: 0441 b3bc 52b7 8dbd bd06 a1bd 02f5 a73c
000000e0: 8a3c 163d 39f9 5abd 7126 a13d bdf8 453c
000000f0: f30e a43d f7c8 583d 1f10 273d 89b6 92bd
00000100: 399e 91bd 9893 863d 1238 8a3c 3e98 7ebd
00000110: 9ea9 103c eab7 c33c bff2 533d 8d2d e53c
00000120: 4f19 6a3d 8b75 41bd 3ad3 23bd 1c7b 08bd
00000130: e4f2 ef3c dfd4 9b3d 0c94 b13d 2e09 8fbd
00000140: b133 063d f43e ec3c 8fc8 8a3c 044b 49bd
00000150: 50d4 68bc 1c1f 15bd 1141 5b3d 12b4 45bd
00000160: ff10 5f3d c220 953d 8be6 703d b81c a83d
00000170: b591 74bc f3c5 14bd b5cf a83d 6f9c 96bd
00000180: cd47 143d 46a3 933d d93b 86bb afdf ad3d
00000190: 844c f73c 7748 89bd 4a19 b6bc 4ec7 893d
000001a0: cf7e 32bd 90ad 15bd ac14 23bb 8d37 903d
000001b0: c543 66bb eaae a43d d242 433a 121d 883d
000001c0: 414f 58bd c6d5 97bd 8edd 253c 7c2a af3d
000001d0: c6bb 9d3d 092c 233d ced8 86bd 3039 863d
000001e0: b9a9 2aba 0d84 a43d 97d8 11bd cb36 7c3d
000001f0: f2d7 3b3d 2bb6 203d 2868 d53c 7bbf afbd
00000200: dc21 b33d fd17 55bd e931 6f3d 2f24 09bd
00000210: 57ba debc 54f0 36bd 45ab 873d 51a6 0bbb
00000220: 889a 4e3c bae1 f63a 5170 31bd cb3d 843d
00000230: 300f 713c f739 a33d 981a 363d 0097 143d
00000240: 2da8 9dbd d37b 8f3d a5c0 96bd 9aae 91bd
00000250: 9893 763d eb66 8dbc 1855 173d f3e1 73bd
00000260: da35 a1bd 10ef 12bc 2fca 233d d3fa 3abd
00000270: 0aa8 9dbd b9cb 203a 4334 9ebd 8fa5 6e3d
00000280: b15c ac3c 15df 61bd e1dd 7d3c 425b afbd
00000290: 0384 96bd 12bf 32bd 33ab 1dbd f997 243d
000002a0: fc06 a83d 3611 fbbc 7aa8 55bd ed82 ccbc
000002b0: 0c2a 33bd 90fd 8b3d 7585 92bb 7437 42bd
000002c0: ef97 993d b30a 13bd e893 95bd 9f5f 0f3d
000002d0: 9571 a83c 71c1 2f3d af8e f43c a6e3 383d
000002e0: f214 6d3c 0177 083d 87a3 073d 106a 5abd
000002f0: 10ed 79bd 1f18 8ebd 2796 413c 62c9 91bd
00000300: 91ed 3cbd 72b5 4f3d 7765 9f3c 2e24 b1bc
00000310: 8663 71bd d4c0 d6bc 66fd 7c3d 993f 7cbc
00000320: e0ed 0b3d 2c40 9e3d 0b27 e7bb 2ae6 533d
00000330: 6dc1 2cbd 7412 5f3d 0c41 943d 9f74 7bbd
00000340: cc29 593d 3731 51bd 34c6 723d b532 70bd
00000350: 0fd7 87bd 6154 8c3b 5d66 cb3c f06c 9ebd
00000360: 82df 143d ed0f 98bd 7978 27bd db2d afbd
00000370: e212 853d 7e53 6dbd 5c43 943c 439e 6abd
00000380: 2cc6 84bd d5da 603d 5835 5d3d 910b babc
00000390: 5add d0bc 2c49 063c 7db0 8bbd 8d71 cabc
000003a0: fe3f 093d dd73 9e3c 21b6 4b3c 564c 043b
000003b0: 30ab 50bd b81a 113d d62b 8c3d 8a74 b4bc
000003c0: ac2c 9d3d 6253 163d d094 793d c55e 90bd
000003d0: a3f8 b4bc 1c79 ad3d 5b9c a03d 314d 853b
000003e0: 49ff 593b 5409 9c3d b94f b0bc cee3 3e3d
000003f0: a71e be39 0571 a5bd 8337 2ebc 0b1e 513d
0.032666303 0.0527987 -0.024529537 0.00854405 -0.066202395 0.027102249 -0.012772464 0.06704235
-0.08450216 -0.04743511 0.056339495 -0.05521469 -0.07985082 0.07363042 -0.023785787 0.046161614
0.076866105 -0.019898847 -0.055181295 0.08351293 0.054400142 -0.025635278 -0.024938814 0.043393247
0.06635112 -0.036133114 -0.086134486 0.076770656 -0.029081134 -0.07452263 0.06308307 -0.040422242
-0.070974484 0.0156152 0.05070316 -0.022536853 0.044853184 -0.065607086 0.085023455 0.083955616
-0.021595225 0.060952432 -0.05877705 0.0029008535 0.037544213 -0.059439097 0.019243235 0.08693519
-0.06235209 -0.03492186 -0.072816126 -0.043160375 -0.021881588 -0.06919731 -0.07862613 0.020502571
0.03667883 -0.053460333 0.0786866 0.01208323 0.08010664 0.05292603 0.04078686 -0.07163722
-0.07110257 0.0657112 0.01687244 -0.06215691 0.008829502 0.023891408 0.051745173 0.027975822
0.057153042 -0.04723124 -0.039996363 -0.03332053 0.029290624 0.07608961 0.08670816 -0.06984173
0.03276414 0.028838612 0.016941337 -0.049143806 -0.0142107755 -0.03640662 0.05352885 -0.04826743
0.054459568 0.07281639 0.058813613 0.08208603 -0.014927317 -0.03632159 0.08242742 -0.07354056
0.036201287 0.07208876 -0.00409649 0.0848993 0.030187853 -0.06703275 -0.022228856 0.067274675
-0.043577965 -0.036542475 -0.0024884148 0.070418455 -0.0035135609 0.08041175 0.00074486167 0.0664617
-0.052809957 -0.07413821 0.010123624 0.08553025 0.077018306 0.039836917 -0.06584321 0.065538764
-0.0006510276 0.08032999 -0.035606947 0.061575692 0.04586024 0.03923623 0.026050642 -0.08581444
0.087466925 -0.05202483 0.058397207 -0.033481773 -0.027188463 -0.04466279 0.06624464 -0.002130885
0.012610085 0.0018835582 -0.043320004 0.064570986 0.014713094 0.0797004 0.044458956 0.036276817
-0.076980926 0.070060395 -0.07360963 -0.07113381 0.06019935 -0.01726099 0.036946386 -0.059541654
-0.078715995 -0.00896813 0.03998774 -0.04564936 -0.076980665 0.00061338727 -0.07724812 0.058263358
0.021040292 -0.05514439 0.015494795 -0.08562328 -0.07349398 -0.04363925 -0.038493346 0.040183995
0.08204457 -0.030647855 -0.052162625 -0.024964774 -0.04374127 0.068354726 -0.0044714757 -0.047416165
0.07499682 -0.035898875 -0.073036015 0.0350033 0.020561973 0.04290909 0.029853193 0.045138977
0.014470326 0.033316616 0.033114936 -0.053323805 -0.061017096 -0.069381945 0.011815584 -0.07118489
-0.046125 0.05071015 0.019457562 -0.021623697 -0.058932804 -0.026214994 0.061765097 -0.015396022
0.034162402 0.077270836 -0.007054215 0.051733173 -0.042176653 0.054460958 0.07238969 -0.061390515
0.053018376 -0.051072326 0.059271052 -0.058642108 -0.06632816 0.0042825197 0.024829084 -0.07735622
0.036345966 -0.074249126 -0.040886376 -0.08553668 0.06497742 -0.057940952 0.018098526 -0.057279836
-0.06483111 0.054896194 0.05400595 -0.022710593 -0.025496174 0.0081961565 -0.06820772 -0.024712348
0.033508293 0.019342357 0.01243356 0.0020187101 -0.050944507 0.03542587 0.068442985 -0.022028226
0.07674536 0.036700614 0.060932934 -0.07049326 -0.022091215 0.084703654 0.078423224 0.00406804
0.0033263734 0.07618967 -0.02152239 0.04660397 0.00036262462 -0.080781974 -0.010633352 0.05105404

encoder.2.bias f4 [64]
00000000: b5b3 afbd b812 84bc 4601 963c f3c3 903d
00000010: 0d78 af3d bf0c 22bd 5ed8 a83c c442 30bd
00000020: a0cb 08bd e49c 00bd 04cd 5abd 025b 55bd
00000030: ff40 ec3b ff82 98bd 21d9 793c d9cd 14bc
00000040: 65b5 95bd 995d ddbd 3fe6 09bc b74d ec3c
00000050: 57b1 a8bd 5499 31bd 1de9 e63d 41c2 febc
00000060: 53da 21bd 11d2 a73d 77a4 64bd 2052 87bd
00000070: 68ed e8bc 54d7 b23d 2898 9dbd 1eab 97bc
00000080: 7ee4 583d e02a 1cbd a8f8 67bd bb08 8abd
00000090: 152d 703d dbd7 a73d 6548 1d3d 3ddb 9e3d
000000a0: e302 abbd 2e4b bc3d 3480 a9bd 0140 dc3c
000000b0: 35f0 903d 74e5 6e3b 06b5 693d da85 83bd
000000c0: bea2 abbd 32b1 e13c 8dd2 89b9 85fd 0bbc
000000d0: 6d57 913c bad2 c93c 0f61 9cbd d5c2 a5bd
000000e0: 49e0 db3c 0200 8cbd 013d 903d 61c8 c5bb
000000f0: dd77 78bc 64bb 59bd 099a 2abc 2980 b8bd
-0.08579198 -0.016122207 0.018311154 0.07068624 0.0856782 -0.039562937 0.020610984 -0.043032423
-0.033397317 -0.031399623 -0.053418174 -0.052088745 0.0072098966 -0.074468605 0.0152495215 -0.009082281
-0.07309989 -0.10808868 -0.008416711 0.028845651 -0.0823695 -0.043359116 0.112749316 -0.031098487
-0.03951485 0.08194364 -0.05582091 -0.06607461 -0.028433517 0.08732477 -0.07695037 -0.018514212
0.052952282 -0.038126826 -0.05663362 -0.067399465 0.058636744 0.08195468 0.03839912 0.0775666
-0.0835016 0.09194027 -0.08276406 0.026885988 0.07077066 0.0036452683 0.057057403 -0.064220145
-0.0838065 0.027550314 -0.0002628755 -0.0085443305 0.017741883 0.024636615 -0.076357 -0.08093802
0.026840346 -0.06835939 0.070428856 -0.00603585 -0.015165296 -0.053157225 -0.010412701 -0.090088196

encoder.4.weight f4 [3, 64]
00000000: 916d 3c3d 933e 5d3d 059e 04be b874 ef3b
00000010: f179 053d 3906 d63c 3550 983d 1360 15bd
00000020: aea7 ba3d bb74 febd 89df 823d 255d f43c
00000030: 1daa a63c 0238 eabd e902 cd3d a9d3 be3d
00000040: 7814 f73b a720 52be d19d c6bd e28b 58be
00000050: 1196 37be b872 643d 98a1 023e 53d1 58be
00000060: 7426 5bbd 4f64 14bd 945e 3ebc e1f9 0fbc
00000070: 67a2 2fbe 3fcc 623d cff8 d6bd 895d 04be
00000080: 1490 efbc 28de 03be 5640 803a 2c2a bfbd
00000090: 3cca 8d3d 5d38 0a3e 970a 32be 7ed7 d03d
000000a0: 409b 263d 9973 8f3d 6d7e 293c 6426 b53b
000000b0: 0443 0e3e 769f 9dbd f73d 093d f38b 0bbe
000000c0: 34c0 fcbd b69e 2d3d 1949 3abd 583f 2b3c
000000d0: ff1c db3d c976 963d aa0f be3d fa47 f83d
000000e0: 1395 c53c 113a d63d 1f21 b6bc 5c73 7e3d
000000f0: f2d9 803c a90f 8e3d 67ff 1dbe b690 6bbe
00000100: b27a d83d 23ea 633d 9cc9 d5bc ea62 b8bc
00000110: 39e8 2e3b 78fe ebbd d717 c9bc 72c8 be3d
00000120: e857 efbd 7a45 f6bd f459 053c 2333 20bd
00000130: c852 ae3d c9d7 0bbe bd8c ae3c f0fd 953d
00000140: 2a51 4dbd c338 4d3d 5936 fd3c f285 833d
00000150: b2e3 41bd 8a61 d13d 2d40 873d 7016 e73c
00000160: 8690 e83d a197 043e ac4f a53d 28a3 aabd
00000170: 8926 e1bd 4d8e 283d 14d3 14be 343f 053c
00000180: aad4 4ebd 2b82 ebbd e8a9 8fbd 118e d2bd
00000190: 1aa5 283d c7a2 c33d db7e c6bd e0b9 7ebc
000001a0: b4f5 e13d 0f1f 593c 5faa 6fbd f28a d23c
000001b0: cb5a 74bd 45d9 f0bc 9fcf 8cbd 2ea2 30bd
000001c0: 181f 593d af6f 8c3d b76d e7bd ce3a d33d
000001d0: f3b7 fb3d 03b1 673d 568b ecbc 1cdc 713d
000001e0: fbf9 b0bd f9c2 153c 9f9e d63d d4f4 dc3d
000001f0: 937b 5c3d ffcd b5bc 64b5 d13d 8581 f33d
00000200: 1930 c9bd 82e1 cdbd ed0c 03be 02f2 6d3d
00000210: d4d6 18be e2c0 803d ec18 053e 483c 9d3c
00000220: b96d 3a3d 4ee0 ad3d 12c9 b5bc 0700 9c3c
00000230: f500 9fbd 0e0c 683d 03e1 96bd 8b59 dabd
00000240: 9481 c3bc 953b cbbd d07b 18bd fab2 79bb
00000250: 3765 833d 98c4 42bd 43d4 11bd 308b 983d
00000260: 7908 c53d 5290 e33d 8efd 5c3b e4c3 e73d
00000270: 23ac a23d ec0e d4bd 1cbe 393d 3ef3 03bd
00000280: 90f4 cebd 9acd 483b 28e1 fcbd 26f8 8d3d
00000290: c438 fabd 45c5 d9bd 243c 23bc 24b4 dcbd
000002a0: 98c1 543d 155a d8bd 0d35 a83d 41d0 e63d
000002b0: bd2c 9bbc c815 70bd a530 b9bd 15e8 0dbe
000002c0: 1040 42bd 1286 63bc 69e3 98bc 48f8 febd
000002d0: 8a21 13bb 1684 e53d a510 42bd 8695 aabd
000002e0: d69e ff3d f96e ddbd 8507 f7bd b1ca c43c
000002f0: 09d7 edbc 3074 65bd 3b5a f3bd 73b0 c93d
0.04600293 0.054014754 -0.12950905 0.007307615 0.032586996 0.026126014 0.07437173 -0.036468577
0.091140136 -0.12424608 0.06390292 0.029829571 0.020344788 -0.11436464 0.10010321 0.09317715
0.007540282 -0.20520268 -0.0969807 -0.21147111 -0.1792834 0.055773467 0.12756956 -0.21173601
-0.05350347 -0.036228474 -0.011619229 -0.008787603 -0.17151795 0.055370566 -0.10496675 -0.12926306
-0.029243506 -0.12877715 0.0009784799 -0.093342155 0.06923339 0.13498063 -0.17386852 0.10197352
0.0406754 0.070044704 0.010345084 0.005528258 0.13892752 -0.076964304 0.03350636 -0.13627605
-0.12341347 0.042387687 -0.045479868 0.010452114 0.1069889 0.07346875 0.092803314 0.121231034
0.024118936 0.10460294 -0.02223259 0.062121734 0.015728924 0.06936581 -0.1542946 -0.23004422
0.10570277 0.055643212 -0.026097111 -0.022508103 0.0026688708 -0.115231454 -0.0245475 0.09315576
-0.11686689 -0.1202497 0.008139122 -0.039111268 0.08511883 -0.13656534 0.021307344 0.07323825
-0.050126232 0.05010296 0.030909704 0.064220324 -0.047336288 0.10223682 0.066040374 0.028208941
0.11355691 0.12948467 0.08071837 -0.08331901 -0.10993678 0.041151334 -0.14533645 0.008132745
-0.05049578 -0.11499437 -0.07014829 -0.10281003 0.041173078 0.09552532 -0.096921645 -0.015547246
0.11033192 0.013252034 -0.058512088 0.02570102 -0.0596569 -0.029400477 -0.06875538 -0.043123417
0.05300817 0.068572395 -0.11300223 0.103139505 0.12290945 0.056565296 -0.028875034 0.059047803
-0.0864143 0.009140723 0.10479473 0.10788885 0.053828787 -0.022192953 0.10239676 0.11889938
-0.09823627 -0.10052778 -0.127979 0.058092125 -0.149257 0.062867895 0.12997788 0.019193783
0.045514796 0.08490048 -0.022190604 0.019042982 -0.077638544 0.05665212 -0.07367136 -0.1066161
-0.023865499 -0.09923474 -0.03722745 -0.0038101063 0.064157896 -0.047550768 -0.03560282 0.07448423
0.09620757 0.11111511 0.0033720466 0.1131666 0.07942989 -0.103544086 0.045347318 -0.032214396
-0.1010524 0.0030640126 -0.12347633 0.06932096 -0.122178584 -0.10633329 -0.009963069 -0.107765466
0.051942438 -0.10564057 0.08213244 0.1127019 -0.018942231 -0.058614522 -0.09042481 -0.13858064
-0.047424376 -0.013886945 -0.018663125 -0.124497 -0.002245041 0.11206834 -0.047379155 -0.083293006
0.124814674 -0.10812182 -0.12061981 0.024022432 -0.0290332 -0.05601901 -0.118824445 0.09848108

encoder.4.bias f4 [3]
00000000: ad2a aa3e 6927 83bd cc1a b4bd
0.33235684 -0.06404001 -0.087941736

decoder.0.weight f4 [64, 3]
00000000: a937 e5be 7e33 0f3f 4f8b 143f 88af b93e
00000010: 2c79 e3be 14b8 73be af50 04bd 37b2 1b3d
00000020: 3f30 1fbe ceea 033f 24a1 c63e 02a5 1b3d
00000030: a535 adbe 3f9a 05bf 1333 ef3d 3c10 16bf
00000040: 649e 0a3e 9df1 10be dbd1 fb3e 3889 943e
00000050: 7496 7c3d c5df b3be c467 c23e 9b80 eebe
00000060: 5a52 d9be 7b55 b93e bb68 863d 9b7e 483e
00000070: 18cd eb3d fe74 833e ccfd 0b3f 28a9 173e
00000080: 5dc2 83be 92ff 023f f87b 3c3e aa70 a93e
00000090: ee91 eabe 9229 1ebe e4e4 563e aaa3 c33e
000000a0: 60e5 f43d 4498 033e 89b4 1dbf ce31 cd3e
000000b0: 44d3 ffbe 4d62 c63e 32a2 0d3f d88b 0e3e
000000c0: a203 8dbe 7c8e 0b3f d58a c03b 82f8 9dbe
000000d0: 6692 ecbe 6f0d edbe 50de 1fbe 6285 e5be
000000e0: 95cc f1be ea45 d5be 2fe0 8c3e b717 82be
000000f0: fa78 c0be b231 dabe f00a 2c3e e9ec 4a3d
00000100: 2b55 823d 74bf 84bc ead5 dcbe 695a eabe
00000110: 31a5 bdbe bcf2 203e 00fd 8fbb 62cd 0ebe
00000120: 40f5 90bc 0bef 0abf a0a6 e43e 254a 7cbe
00000130: 1032 fb3e 79cd 06bf b6f8 b23e 2804 903e
00000140: f41c 333e b2bc 34be cb59 88be a8b9 c8be
00000150: fc03 b03e 7ea6 02bf c461 5d3e d35c 24be
00000160: f1e2 13bf 9b5f ddbe 6de2 1abd 6994 b7be
00000170: 138c 1d3e 791d f43d 58cd 813d 55a1 0d3f
00000180: a6b6 053f 8e4a 69be f0f9 893e 29d3 01bf
00000190: fa9e 0b3f d677 cb3e 146e d93e 5afa bd3e
000001a0: 00da 6a3b 1745 7fbe 0a1f 0c3f 03eb cb3e
000001b0: 492e 25bf 2d4d c4be c017 083f bc65 093e
000001c0: 78a4 dbbd d6f8 c03e 2548 243e 581a 243e
000001d0: b681 663d 9c83 393e 80c4 4cbc 12df a33e
000001e0: e0ee 573d deab 0a3f a855 d93d c621 133f
000001f0: 102a b43d c0ac 43bc f822 a6bd 2881 cc3e
00000200: c095 5ebc 22fe 0bbf 8923 08bf d661 03bf
00000210: 3873 81bd ce76 e13e c588 b43b 959b f03e
00000220: 8a12 323e 32f9 b5bc 17b9 b43e 2b42 b7be
00000230: a87e 8dbe 7c0f 593c 443c 603d fe17 84be
00000240: 4636 c9be 6065 70be 8b04 d0bd a448 c5be
00000250: 60b6 703e e8dc f9be 6ca1 0abd d774 0b3f
00000260: da91 d7be 8091 30bd 08e7 f23d ceb7 133f
00000270: 024f ae3e 1e3b 003f 1079 19be e513 193e
00000280: c890 0d3f fdbf aabd ae68 12bf b96a c4be
00000290: 24ac 8a3e 0a76 033f 2008 3c3d 92a5 c83e
000002a0: 1c07 f5be bf3a 553e 41bc 9c3e d2e6 99be
000002b0: 49b3 a2be 653d dc3e 90ca 8e3e e33f d33e
000002c0: 8c53 f3be 8c34 023f f702 19be a403 363d
000002d0: 2298 a4be 041f f8bd 5792 793e 37c9 033f
000002e0: 1f2d 00bd b340 8c3e 5e4f 04bf ab82 d33e
000002f0: f3a2 eb3e 081e df3e 6d45 653e 206d 9bbe
-0.44769028 0.55937946 0.5802507 0.36266732 -0.44428384 -0.23800689 -0.03230351 0.038011756
-0.15545748 0.5153016 0.38794816 0.03799916 -0.3382999 -0.52188486 0.116796635 -0.5861852
0.13536984 -0.14154668 0.49183545 0.2901094 0.06166692 -0.3513166 0.37969792 -0.46582493
-0.42445642 0.3619803 0.065629445 0.19579546 0.11513728 0.25675195 0.5468414 0.14810622
-0.25734225 0.5117122 0.18406665 0.33093768 -0.4581446 -0.15445545 0.20985752 0.38210803
0.11957812 0.12851053 -0.616036 0.4007706 -0.4996587 0.38746873 0.55325615 0.13920534
-0.27541834 0.5451429 0.005875925 -0.3085366 -0.46205443 -0.46299312 -0.15612149 -0.44828326
-0.47226396 -0.41654903 0.27514789 -0.25408718 -0.37592298 -0.4261604 0.16801047 0.04954234
0.06363901 -0.016204573 -0.43131953 -0.45772102 -0.37040094 0.15717596 -0.0043941736 -0.13945535
-0.01769507 -0.54271 0.44658375 -0.24637659 0.49061632 -0.52657276 0.34955376 0.2812817
0.17491513 -0.17650107 -0.26631007 -0.39204144 0.3437804 -0.51035297 0.21619326 -0.16051035
-0.5776816 -0.43237004 -0.037813593 -0.35855415 0.15385465 0.11919684 0.06337994 0.553243
0.52231824 -0.22782347 0.269485 -0.5071283 0.54539454 0.39739865 0.42466795 0.37105066
0.0035835505 -0.249287 0.5473486 0.39827737 -0.6452375 -0.3834013 0.5316124 0.13417715
-0.10724729 0.37689847 0.16043146 0.16025674 0.056276046 0.18116611 -0.012498021 0.32006127
0.052718043 0.541685 0.10612041 0.5747341 0.08797085 -0.011943042 -0.081121385 0.39942288
-0.013585508 -0.5468465 -0.5317922 -0.5132116 -0.06320804 0.44035953 0.0055094683 0.469937
0.17389885 -0.022213552 0.35297462 -0.3579267 -0.27635694 0.013248321 0.054744974 -0.25799555
-0.3929922 -0.23476171 -0.101571165 -0.38531983 0.2350707 -0.4880135 -0.03384535 0.5447516
-0.42103463 -0.04310751 0.11860472 0.5770234 0.34044653 0.50090206 -0.14987588 0.14948995
0.55299044 -0.083374 -0.5719098 -0.38362673 0.27084458 0.5135199 0.045906186 0.3918882
-0.47856987 0.20823191 0.30612376 -0.30058914 -0.3177741 0.4301559 0.27888918 0.4125968
-0.4752468 0.5086143 -0.14942537 0.044437066 -0.32147318 -0.12115291 0.2437223 0.51478904
-0.03129303 0.27393112 -0.51683605 0.4131063 0.46022758 0.435776 0.22389765 -0.30356693

decoder.0.bias f4 [64]
00000000: 4ac7 9b3e d744 b0be 965b b63e e37c fb3e
00000010: aab2 f3be 8731 033f 15f9 7a3e 0a98 86be
00000020: 4d8c f53e efa8 203e 4ea5 48be 4bc4 9dbe
00000030: c506 e3bd 3982 a5bd 6675 0e3f 421a d13e
00000040: 0ff1 c8be d138 d2bd fd67 b8bd 6fc7 52be
00000050: 8fe1 12bf 43ed 363e 1abc 933d 38e3 15be
00000060: 6126 03bf 2d7d cfbe 9464 40be 2477 0f3f
00000070: 560e bcbe 8a9e bc3d 6b49 b03e 71ee d83e
00000080: 14c9 86be c3db 8c3e 1c14 fdbe a58d 50be
00000090: 2b74 0b3f 0a44 6bbe 0775 f93e 8625 12be
000000a0: 7822 b3bd 76fe 85be fce1 6cbe f5a4 8b3e
000000b0: 12d9 ae3e 4647 053f 8605 813e 2299 983e
000000c0: b24f 4b3e 0843 cbbe 3804 b63e c7c3 fdbe
000000d0: 07d1 f0be 2684 0d3e d02a 163e 2c4d b9be
000000e0: b3a2 ca3e 44b3 e63e c67a b63e 5869 8d3d
000000f0: 1f08 32be d3fb 223c 7447 cdbe 5c2d 7bbc
0.30425483 -0.3442752 0.3561675 0.49118719 -0.47597247 0.5124745 0.2450908 -0.26287872
0.47958604 0.15689443 -0.19594309 -0.30813822 -0.110852756 -0.080814786 0.55647886 0.40840346
-0.39246413 -0.10264743 -0.09004209 -0.2058389 -0.57375425 0.17863946 0.07213612 -0.14637458
-0.51230437 -0.4052519 -0.18788368 0.5604117 -0.36729687 0.092099264 0.34431013 0.42369416
-0.26325285 0.27511415 -0.49429405 -0.20366533 0.54474133 -0.22975174 0.48722097 -0.14272127
-0.08746809 -0.261707 -0.23133081 0.2727429 0.34149987 0.5206188 0.25199527 0.2980433
0.1985462 -0.39699578 0.35550094 -0.4956343 -0.47034475 0.13819942 0.14664769 -0.3619169
0.39577255 0.45058644 0.35640544 0.06904858 -0.1738591 0.009947735 -0.40093577 -0.015330639

decoder.2.weight f4 [128, 64]
00000000: 80ce 073d da4a c33d 4859 1fbd 9acc 93bd
00000010: 3069 a7bd dabc ad3d 2c6c 12bd fd51 95bd
00000020: 97ef 01be 1119 3f3d 1a85 e13d fec1 c93d
00000030: edc9 4d3d 4046 9f3c d1ae 763d 7bd4 acbd
00000040: f088 733d c5b5 b2bc f34e 9f3c f24b 9fbb
00000050: b9b7 c73d df87 073c 9df8 f93b 8ebc 8fbd
00000060: 90ef 773c 50cd fa3d 4894 113d daa5 e93b
00000070: f6d3 8dbd f334 9f3c 79b6 6a3d 7e6d fa3d
00000080: faaf a5bd 3f13 b3bd 003f 2f3d 1822 f53a
00000090: b4f0 f53d 50fc dbbd c66e 6aba f060 4cbc
000000a0: 94c9 9b3d b82d d93d f468 b3bd 9b2f f33d
000000b0: 3b91 9fbd 25b2 71bc 38d1 f7bd 3206 dcbd
000000c0: 50a5 5f3b f7d4 efbd b7e4 2b3d 00d0 6f3a
000000d0: 1894 61bd 0a96 10bd c771 1a3d b042 cbbc
000000e0: 34d8 4bbd 930f 30bd fb40 29bc 8bac 053a
000000f0: a6cb 4f3c 6453 90bd 9222 5b3c 1440 fd3d
00000100: 9cb1 1d3c deaa 83bd 8d92 5fbd be40 473d
00000110: d51a b53c f6c9 adbd 4034 2abd fe7c 923d
00000120: 55f1 e2bd 1384 a7bd 48b2 2ebd fcb2 a9bd
00000130: 0496 c63d e6ae a03d 1534 88bd cf91 063e
00000140: f620 a83d 51cd 95bd dad6 6cbd 1712 dbbc
00000150: 10d4 e53a fca9 eabd 8871 e73d f08f f23d
00000160: c046 66bc 8d1d dabc 6a57 c13d 6112 cb3d
00000170: 9056 163d e676 ec3d bcfb 803d 29ce d73c
00000180: b81b e9bc b72b 823d b0e2 7dbd 329e dd3d
00000190: 353b 383d 26ba f5bd b714 373d 8448 fe3d
000001a0: 10e6 7f3c 308c 983d 30c0 9cbd d6db e13c
000001b0: cbf4 36bd 5323 903d 1146 aa3d dd4f 1bbd
000001c0: 9fa6 413d 553b b7bc 54a8 e1bd 204c 43bd
000001d0: 28b3 303d b05e ddbd b648 c5bd 6089 9c3c
000001e0: e1e6 40bc 8a7b 003e f88f ac3d 0c2a 5bbd
000001f0: 59ef cdbd 70ed 9abc 0cfd 0f3d 6ff1 dabb
00000200: ae64 6c3d a68a d0bd 2a97 a33d 9056 b4bd
00000210: 7cd8 223d 3f75 1ebd 9c0c 043d eefc 54bd
00000220: ed3d 1d3d 28a4 cfbc 48e5 873d 805a beba
00000230: fcbe ab3d 4ce5 32bd 3161 14bd 60ca d0bb
00000240: dc06 ba3d 5148 b7bd 45fd 4c3c b9d3 f23b
00000250: 0ecd 183d a0d5 5b3d 99f8 ef3d e012 cf3d
00000260: c43b 8b3d d867 393d 4cf5 a13d 4980 72b9
00000270: 3079 debd b763 22bd b6d0 84bd 9812 863c
00000280: 8c1a 113d f3a5 aabd b239 d43d eca0 2f3d
00000290: 9890 dd3d e0ea 6dbd ac6b 68bd 1029 d7bd
000002a0: 50a9 5ebc c679 84bd 2cd8 b3bd 0d2f 063d
000002b0: dc1f 88bd 929b d7bd e276 8fbd 247c c9bd
000002c0: cf59 133a ebd5 73bc 42b1 df3d f455 3bbd
000002d0: 7ccb 423d 883c 42bd f5c1 dfbd 60d7 f33b
000002e0: 52a2 f1bd 9863 f23c 3aba dabd 840e d4bd
000002f0: be58 9abd 60c3 273d 1a50 dc3d 48b6 c0bd
00000300: bc60 993d 2810 92bd 8da6 a0bd 1ca3 20bd
00000310: 5624 cfbd 7252 11be 5eba 95bd ba60 c33d
00000320: 89e6 45bb f584 913c a05b f73b 42b9 d4bd
00000330: 5265 5a3d 805f 073d dd9f 7fbc b62a cf3d
00000340: 1466 4d3d 8186 3abd db25 e5bd 75ed f83d
00000350: 22c2 7f3b 720e 03be 2783 cb3c c20c a1bd
00000360: 4496 0c3d 4781 5b3d 1463 ffbd d23a 9fbd
00000370: 7cc1 c5bd 19e1 ab3d 9cb5 d23d 41ed 143d
00000380: de73 8cbd ada0 1cbc 6671 843d e415 163d
00000390: f475 373b a820 063d bb63 11be ca21 b23d
000003a0: d281 893d 26fe f3bd b0bb 6ebc d9c4 bc3d
000003b0: 851c 1fbd 09e2 cb3d 7ee4 b6bd c8c1 ac3d
000003c0: e194 7e3d 23ca 7b3d 1976 d9bd bc9b 81bd
000003d0: e836 99bc 26e1 613d 6dcb f1bd f050 31bd
000003e0: b6fb c73d 7804 9d3d d4db 053c 4384 3b3d
000003f0: b8cf 163d ef7f ce3d 3743 e5bd 341f b9bd
0.033155918 0.09535761 -0.038903505 -0.07216759 -0.0817436 0.08483286 -0.035747692 -0.07291029
-0.12689053 0.046654765 0.11011715 0.09851454 0.0502414 0.019442677 0.06022531 -0.08438965
0.059456766 -0.02181519 0.019446826 -0.0048613483 0.09751839 0.00827214 0.007628514 -0.07018386
0.0151328 0.122461915 0.035541803 0.0071303668 -0.06925194 0.019434428 0.057302926 0.12227915
-0.080902055 -0.08743905 0.04278469 0.0018702177 0.12008801 -0.10741484 -0.0008942898 -0.012474284
0.07606807 0.10604423 -0.087602526 0.118743144 -0.077913724 -0.014751946 -0.12100452 -0.10743369
0.0034125634 -0.11710542 0.041966166 0.0009148121 -0.055072874 -0.03529934 0.037706163 -0.024812073
-0.049766734 -0.042983603 -0.010330434 0.0005099258 0.012682831 -0.070471555 0.013374941 0.123657376
0.009624865 -0.06429075 -0.05458312 0.048645727 0.022107521 -0.084857866 -0.041553736 0.071527466
-0.11081187 -0.08179488 -0.04265049 -0.08286092 0.09696582 0.07845859 -0.06650559 0.13141559
0.08209412 -0.073145516 -0.057822086 -0.026742024 0.0017534513 -0.11458203 0.11300951 0.1184386
-0.014054954 -0.026625419 0.09440501 0.09915615 0.036703646 0.115461156 0.062980145 0.026343422
-0.0284556 0.06355994 -0.061983764 0.10821189 0.04497834 -0.119983956 0.04469749 0.12416175
0.015618816 0.07448614 -0.07653844 0.027570646 -0.044667047 0.070379876 0.08314145 -0.03791796
0.047278043 -0.022367159 -0.11018434 -0.04768002 0.043139607 -0.10809076 -0.09633009 0.019108474
-0.011773796 0.12547126 0.08425897 -0.053506896 -0.100554176 -0.018912047 0.035153434 -0.006681613
0.057713203 -0.10182695 0.07987817 -0.08805573 0.039757237 -0.038686033 0.032238588 -0.051999025
0.038389135 -0.02534683 0.06635529 -0.0014522821 0.08386037 -0.043675706 -0.0362255 -0.006371781
0.090833396 -0.0894934 0.012511556 0.007410493 0.03730493 0.053670526 0.11717338 0.10111022
0.06798509 0.04526505 0.07908115 -0.00023126708 -0.108629584 -0.039645877 -0.06485121 0.016366288
0.035425708 -0.083324336 0.10362567 0.042878076 0.10818595 -0.058085322 -0.05674331 -0.10505879
-0.013590172 -0.06468539 -0.08781466 0.032759715 -0.06646702 -0.105277196 -0.07005097 -0.09838131
0.00056209875 -0.014882545 0.10922481 -0.04573627 0.04755734 -0.04742101 -0.10925666 0.007441446
-0.11798538 0.029588506 -0.10680051 -0.10354331 -0.075364575 0.04095781 0.10757466 -0.094097674
0.07489154 -0.07131988 -0.07844267 -0.039218053 -0.101143524 -0.14191607 -0.07310937 0.095399335
-0.0030197224 0.017763594 0.0075487643 -0.103868976 0.053319283 0.03305006 -0.015602079 0.10115568
0.050146177 -0.04553843 -0.11188861 0.12154666 0.0039025624 -0.12798479 0.024842812 -0.078637615
0.034322992 0.053590085 -0.124700695 -0.07774891 -0.09656045 0.08392543 0.102885455 0.036359075
-0.068580374 -0.0095597925 0.064669415 0.03664197 0.002799389 0.032745987 -0.141982 0.08697851
0.067142144 -0.11913709 -0.014571115 0.09217233 -0.038845558 0.09955222 -0.089303 0.08435398
0.0621537 0.06147207 -0.106182285 -0.06328532 -0.01870294 0.05514636 -0.118063785 -0.04329008
0.09764807 0.07666868 0.008170087 0.04578043 0.03681919 0.10082995 -0.11194461 -0.09039155

decoder.2.bias f4 [128]
00000000: fa36 a7ba dfb8 e33d e2e2 3ebc 2223 adbd
00000010: 5ca9 453c b2ee 2d3e 5e1c bcbd 1144 c9bc
00000020: c60f 743d 04f6 f8bd 26cc e0bd 61db 0dbd
00000030: 7925 b6bd 7814 0d3d 5cfd 58bd 96ef e43c
00000040: 2b41 b93d 1a55 f9bd c055 26bd 70a9 19bc
00000050: 969b 98bd 007f c83d 9ab0 b93d f709 b83c
00000060: afd9 a73d 9fc5 7abd 91f1 78bd d81a 273c
00000070: 2e59 e7bd 0c88 403c 518d 41bc 06ef c6bd
00000080: 421e 623b ec9b 3abd 143b aeba 20c2 eabd
00000090: 05ff f5bd 1b57 d0bd f32e a03d 21ce 303d
000000a0: efa2 9abc 809f 84bd 90d2 ab3c 2620 86bd
000000b0: a8db 8abc 2941 c8bd 00cf e3bc 599b 2b3d
000000c0: 84f1 493d 238c 813d 2bc5 463d 8779 1b3d
000000d0: de6b 4d3d 8a8f 6bbc ba2f 7e3d fde3 ad3c
000000e0: f7e8 91bd 6913 383d 1079 cf3c a9ed 4ebd
000000f0: d2c3 e7bd a92d 0cbe 33de 0abe 7c3a 573d
00000100: 4efb ad3c 755f f3bc c0f7 7ebb d2bf d8bd
00000110: 4e40 d73d 3b28 a63d ef90 2dbb da23 d7bc
00000120: 5dfc 863d 44fb cebc f69e 9bbd 963a 88bc
00000130: 0741 323d a541 c63d 4411 b5bd aeae 4a3d
00000140: 35b0 aabd 881a 753d d4cc debd 1341 0fbe
00000150: 64e3 173d c2ac 053d e5bd 5b3a d307 8a3c
00000160: 7a7c febd a588 ce3d bdce 48bd da0a 3c3d
00000170: 1839 fdbd c34b 5fbd 81f0 f6bb 8495 2cbd
00000180: 2c45 0d3e 0fe8 6dbd a4e1 d73d e8ac 353d
00000190: aaf8 1ebd 926a 1e3d 22d8 c2bd fe1c ad3d
000001a0: 1144 933d 6149 8a3d e59f ec3b 5483 00bc
000001b0: 98a5 4dbd 955c 3abd 392b 34bd 30f1 353d
000001c0: 4cda 603d 6cee aebc a997 e53d a958 b83d
000001d0: efd1 983d aef8 abbd 30ee d0bd 66ca 7e3d
000001e0: 9fdb a03c 2a98 f23d 2264 f53d 547f 1e3d
000001f0: 2bbd 273d 8bdd 23bd 6c46 203d 4191 87bb
-0.0012757473 0.11119246 -0.011650773 -0.08453967 0.012064304 0.16985586 -0.09185098 -0.02456859
0.059585355 -0.12156299 -0.10976438 -0.034633044 -0.08893866 0.03444335 -0.052975997 0.027946275
0.09045633 -0.12174435 -0.04060912 -0.009378776 -0.07451551 0.09789848 0.09066887 0.02246569
0.08195817 -0.061223622 -0.06077725 0.010199271 -0.112963066 0.011751186 -0.011813478 -0.09713559
0.0034502898 -0.045558855 -0.0013292753 -0.11462808 -0.12011532 -0.10172864 0.07821455 0.04316533
-0.01887652 -0.06475735 0.020974427 -0.065491006 -0.016950443 -0.09778053 -0.027808666 0.041896198
0.049302593 0.06325557 0.048527878 0.037957694 0.0501517 -0.014377484 0.062057234 0.021226877
-0.07124513 0.044940386 0.025326282 -0.05051962 -0.11316647 -0.13689293 -0.13561325 0.05254601
0.021237995 -0.029708603 -0.0038904995 -0.10583462 0.10510312 0.08113142 -0.0026484092 -0.026262213
0.06591103 -0.025266297 -0.07598679 -0.016629498 0.043519046 0.096804895 -0.08841184 0.049482994
-0.0833439 0.059839755 -0.108789116 -0.13989668 0.03708209 0.032635458 0.00083824835 0.016849434
-0.12426086 0.100846566 -0.049025286 0.045908786 -0.123644054 -0.05451561 -0.0075359945 -0.042134777
0.13795918 -0.058082636 0.105410844 0.04435435 -0.038811363 0.038675852 -0.0951388 0.084527954
0.07190717 0.06752277 0.0072212094 -0.007843811 -0.05020675 -0.04549845 -0.043986533 0.044419467
0.054895684 -0.021353923 0.112105675 0.090012856 0.07461917 -0.08397041 -0.10201681 0.06220474
0.019635973 0.11845429 0.119819894 0.03869565 0.04095189 -0.0400062 0.03912966 -0.0041371887

decoder.4.weight f4 [784, 128]
00000000: 1c41 503d bf5e 973c 2920 8a3d 3a2e 8d3d
00000010: 54e1 cabc 4bf7 26bd 446c 4abd 7067 053d
00000020: dedb 10bd 569b 2c3d e83b 3cbd 5c4e 2c3d
00000030: e316 763d dc3d 81bd 089d af3c 580d 46bd
00000040: 792a 363c dfb3 74bd bf4d 4c3d 4db9 91bd
00000050: 241a 9cbd b8a2 42bd a033 82bc 4e9d a83d
00000060: 49cc ad3d ce37 98bd 2405 1c3c 127f 9f3d
00000070: a7fd 5fbd dd08 1dbd 17e3 ecbb 2e46 343d
00000080: ddf4 a8bd 7dff 9bbd 1365 e73b c33b a23d
00000090: f4b4 20bd 2aa3 ecbb d9f1 2abd fbaa 2bbd
000000a0: ef19 43bd e0bf 3dbb ee79 e13c 1c96 82bc
000000b0: 6e2d 313d 6498 a6bc 3a8d 273d 91a8 013d
000000c0: 88c9 d6bc eea6 92bd 1517 b93c a906 e1bc
000000d0: bfc2 213d 34d4 053d a826 92bc b032 a1bc
000000e0: 0605 78bd e97e 6b3d e19f ae3d 4589 8e3d
000000f0: edc9 afbd 63af 853d 0d5b 383c 6fc9 a93d
00000100: 76c9 b5bc 3898 c7bc 6ecd 563d 0996 ad3d
00000110: bc14 a83d e311 88bd 7e54 033d 7935 30bd
00000120: 3375 dc3c 9039 e73b 1a0b 133d ac7f 9b3d
00000130: c9e2 9cbd d6a6 a83c c6ca 22bd 6b5e 213c
00000140: 170b 813d c019 f63c 1b99 60bd e937 163d
00000150: 65c0 53bd c402 85bd ac07 6dbd dfce e0bc
00000160: 0ad9 65bd fa6a 71ba 8163 9fbb 5b50 6e3d
00000170: 6c6c 13bd 5153 6c3b 41e3 413d f4cc 98bd
00000180: 8167 a53d 18e4 073d b8c6 39bd ba03 163d
00000190: 84df 4ebd c257 85bb 9466 9dbd d38a 9c3c
000001a0: 301a 913d ae93 063d f64c 58bd 556b ec3a
000001b0: 8625 3fbd b1f9 edbc c309 353c 54f9 96bd
000001c0: 9408 9e3d f66c 32bd c070 b6bb 7602 733d
000001d0: 0fc7 c3b9 f980 943d 4c0f 103c c9b4 88bd
000001e0: cc38 583d 00c2 46bb 7ef7 6b3d 0081 72bc
000001f0: 6140 a0bd 6a51 adbc ae4c 11bd 1b0a 653b
00000200: c411 88bd 7f61 ad3d 6847 78bc 4717 0ebd
00000210: 97c5 133d ad0f a9bd 3897 21bc 7a21 80bd
00000220: ee25 56bb 22e2 2f3d c9bc b0bd f238 ec3c
00000230: 6322 abbd a6c3 8abd 63a3 a53d 2c0f 92bd
00000240: da4b 97bd 2cca 8f3c 6d04 203d 14e2 b13c
00000250: 350b 903d ef05 b1bd 4bad 883d 39a9 433d
00000260: 7d0c acbb 7171 a1bd 9a39 2cbd 3627 22bd
00000270: e8cc 37bc f9d2 b83c e3df 82bc 0c41 a23c
00000280: fbb1 9e3c f2a5 4a3d 9fca 32bd 3607 88bd
00000290: 852f a93d ab07 113d 961c 363d 618c 863d
000002a0: 90d7 43bc 3882 be3c 38fe 123c 4b3e 4abd
000002b0: d0b9 86bb 9f08 39bd b114 33bd 9aef 2eba
000002c0: 96a4 a4bd 30b3 10bc c000 323d 532c 493d
000002d0: ba2a 743d da6a 21bc 1c82 403d bcee 35bd
000002e0: c3cc 4cbd d6a1 abbd a8a2 e7bc 4c2c 3d3d
000002f0: b887 be3c acc3 78bd 6a11 393c ae30 793d
00000300: f33c b63b 8c4f 23bb e0df 03bc f09d 8abc
00000310: d88e abbd 7e9c 943d c0a0 9bbd 4aa6 0bbd
00000320: 4557 8a3c a313 bb3c 744f b1bd 273c f13c
00000330: 4d6f 6a3d 5519 653d bd08 46bd 3f91 39bd
00000340: e727 a0bd d95b b43d 1771 93bd cddf 8bbd
00000350: 5157 e73b 153c 8b3c 970a ca3c 6ebe 553d
00000360: c010 c1bb 5c0c 89bc 971f 643d 36c2 b5bd
00000370: fa58 99bd 77c4 31bc 9be5 2abc 6165 81bd
00000380: 2fa6 cd3c ce36 1f3d 1d60 b03c 0fb2 72bd
00000390: 8a19 10bd 2de9 78bd a450 9abd dcf1 8b3d
000003a0: c382 ea3c 3348 80bd 9af8 b2bc 0669 9fbc
000003b0: f289 703d 36e3 52bc e32c b33d f630 25bb
000003c0: 9d25 a63d bfae 543d f099 0a3d 3eb9 c8bb
000003d0: 9f19 42bc 9bae 193d 964e 933d fe60 a7bd
000003e0: 9986 07bd 432c b03d 96d2 693c 2e4a 443d
000003f0: 9c93 4b3d 47f8 2b3c c256 0dba c938 1e3d
0.050843343 0.018477796 0.06744415 0.06893583 -0.024765648 -0.04076318 -0.049419656 0.03256935
-0.03536593 0.042140327 -0.04595557 0.042066917 0.06008042 -0.06310627 0.021437183 -0.04835257
0.011118525 -0.05974185 0.049878832 -0.071154214 -0.076221734 -0.047518462 -0.015893757 0.082331285
0.0848623 -0.07432519 0.00952271 0.077879086 -0.05468526 -0.03833853 -0.0072292197 0.04401224
-0.08249829 -0.0761709 0.0070616095 0.07921555 -0.03923507 -0.007221599 -0.04173455 -0.041911107
-0.047632154 -0.0028953478 0.02752396 -0.015940718 0.043256216 -0.020336337 0.04090617 0.031654898
-0.026219144 -0.071607456 0.022594014 -0.027468996 0.039492365 0.032673076 -0.017840698 -0.01967749
-0.060551666 0.057494078 0.08526588 0.06959776 -0.08583436 0.06527593 0.011252177 0.082903735
-0.02219079 -0.024364576 0.052442007 0.084758826 0.0820708 -0.066440366 0.032063 -0.043019745
0.026911354 0.0070564225 0.03589926 0.07592711 -0.07660443 0.020587366 -0.03974416 0.009849171
0.06300943 0.030041575 -0.054833513 0.036674414 -0.051697154 -0.06494668 -0.057868645 -0.027442394
-0.056115188 -0.0009209361 -0.0048641567 0.0581821 -0.03599207 0.0036060403 0.047335867 -0.07460967
0.080763824 0.03317651 -0.04535553 0.036624648 -0.05050613 -0.0040692994 -0.07685581 0.019109165
0.07085073 0.032855682 -0.05280777 0.0018037359 -0.046666645 -0.029049726 0.011049691 -0.07371774
0.0771648 -0.043560944 -0.00556764 0.05932852 -0.0003734161 0.07251162 0.00879271 -0.06675107
0.05278854 -0.0030328035 0.057609074 -0.014801264 -0.07824779 -0.021156985 -0.035473518 0.003494865
-0.066440135 0.084658615 -0.015153743 -0.034690168 0.03607711 -0.08254943 -0.0098627135 -0.06256385
-0.0032676416 0.042940266 -0.08629758 0.028835747 -0.08356168 -0.06775598 0.08087804 -0.071318
-0.073875144 0.017552458 0.03906672 0.021714248 0.070333876 -0.0864371 0.06673678 0.047768805
-0.005250512 -0.07882965 -0.04204712 -0.039588176 -0.011218287 0.022561537 -0.015975898 0.019806407
0.019371977 0.049474664 -0.043650266 -0.066420004 0.08261017 0.035407703 0.044460855 0.06569744
-0.01195325 0.023255453 0.008971743 -0.049375813 -0.004111506 -0.045174237 -0.043720905 -0.00066732767
-0.08039205 -0.008831784 0.043457747 0.049114536 0.05961106 -0.009852136 0.046999082 -0.044417128
-0.049999963 -0.08380477 -0.028275803 0.046184823 0.023258075 -0.060733482 0.011295656 0.06083744
0.005561465 -0.002491924 -0.008048981 -0.016921014 -0.08376855 0.07256411 -0.0759902 -0.034094132
0.016887316 0.022836512 -0.086577326 0.029447628 0.05723505 0.05593236 -0.048348177 -0.045304533
-0.07820111 0.08806581 -0.071993046 -0.06829796 0.0070599695 0.016996423 0.024663253 0.05218356
-0.0058918893 -0.016729526 0.05569419 -0.088749334 -0.07487674 -0.0108500635 -0.010430719 -0.063181646
0.025103657 0.038870625 0.021530205 -0.05925184 -0.035180606 -0.06076925 -0.07534912 0.068332404
0.028626805 -0.06263771 -0.021847058 -0.019459259 0.058725305 -0.012871554 0.08748796 -0.0025206185
0.08112643 0.051924463 0.033838212 -0.006125598 -0.011846929 0.037520032 0.071927235 -0.08172797
-0.033087347 0.08602192 0.014271399 0.047922306 0.04970132 0.010496206 -0.0005391651 0.038628373
